{"format": "graph-model", "generatedBy": "2.3.1", "convertedBy": "TensorFlow.js Converter v2.7.0", "userDefinedMetadata": {"signature": {"inputs": {"indices:0": {"name": "indices:0", "dtype": "DT_INT64", "tensorShape": {"dim": [{"size": "-1"}, {"size": "2"}]}}, "values:0": {"name": "values:0", "dtype": "DT_INT64", "tensorShape": {"dim": [{"size": "-1"}]}}}, "outputs": {"module_apply_default/Encoder_en/hidden_layers/l2_normalize:0": {"name": "module_apply_default/Encoder_en/hidden_layers/l2_normalize:0", "dtype": "DT_FLOAT", "tensorShape": {"dim": [{"size": "-1"}, {"size": "512"}]}}}}}, "modelTopology": {"node": [{"name": "module_apply_default/Encoder_en/KonaTransformer/SequenceMask/Const", "op": "Const", "attr": {"value": {"tensor": {"dtype": "DT_INT32", "tensorShape": {}}}, "dtype": {"type": "DT_INT32"}}}, {"name": "module_apply_default/Encoder_en/KonaTransformer/Encode/TransformerStack/Layer_1/TransformerLayer/FFN/conv2/Tensordot/Const", "op": "Const", "attr": {"value": {"tensor": {"dtype": "DT_INT32", "tensorShape": {"dim": [{"size": "1"}]}}}, "dtype": {"type": "DT_INT32"}}}, {"name": "module_apply_default/Encoder_en/KonaTransformer/Encode/TransformerStack/Layer_1/TransformerLayer/FFN/conv2/Tensordot/add_1", "op": "Const", "attr": {"value": {"tensor": {"dtype": "DT_INT32", "tensorShape": {"dim": [{"size": "1"}]}}}, "dtype": {"type": "DT_INT32"}}}, {"name": "module_apply_default/Encoder_en/KonaTransformer/Encode/TransformerStack/Layer_1/TransformerLayer/FFN/conv2/Tensordot/GatherV2_1/axis", "op": "Const", "attr": {"value": {"tensor": {"dtype": "DT_INT32", "tensorShape": {}}}, "dtype": {"type": "DT_INT32"}}}, {"name": "module_apply_default/Encoder_en/KonaTransformer/Encode/TransformerStack/Layer_1/TransformerLayer/FFN/conv2/Tensordot/Const_1", "op": "Const", "attr": {"value": {"tensor": {"dtype": "DT_INT32", "tensorShape": {"dim": [{"size": "1"}]}}}, "dtype": {"type": "DT_INT32"}}}, {"name": "module_apply_default/Encoder_en/KonaTransformer/Encode/TransformerStack/Layer_1/TransformerLayer/FFN/conv2/Tensordot/Reshape_1", "op": "Const", "attr": {"value": {"tensor": {"dtype": "DT_FLOAT", "tensorShape": {"dim": [{"size": "1536"}, {"size": "512"}]}}}, "dtype": {"type": "DT_FLOAT"}}}, {"name": "module_apply_default/Encoder_en/KonaTransformer/Encode/TransformerStack/Layer_1/TransformerLayer/FFN/conv1/Tensordot/Const", "op": "Const", "attr": {"value": {"tensor": {"dtype": "DT_INT32", "tensorShape": {"dim": [{"size": "1"}]}}}, "dtype": {"type": "DT_INT32"}}}, {"name": "module_apply_default/Encoder_en/KonaTransformer/Encode/TransformerStack/Layer_1/TransformerLayer/FFN/conv1/Tensordot/add_1", "op": "Const", "attr": {"value": {"tensor": {"dtype": "DT_INT32", "tensorShape": {"dim": [{"size": "1"}]}}}, "dtype": {"type": "DT_INT32"}}}, {"name": "module_apply_default/Encoder_en/KonaTransformer/Encode/TransformerStack/Layer_1/TransformerLayer/FFN/conv1/Tensordot/GatherV2_1/axis", "op": "Const", "attr": {"value": {"tensor": {"dtype": "DT_INT32", "tensorShape": {}}}, "dtype": {"type": "DT_INT32"}}}, {"name": "module_apply_default/Encoder_en/KonaTransformer/Encode/TransformerStack/Layer_1/TransformerLayer/FFN/conv1/Tensordot/Const_1", "op": "Const", "attr": {"value": {"tensor": {"dtype": "DT_INT32", "tensorShape": {"dim": [{"size": "1"}]}}}, "dtype": {"type": "DT_INT32"}}}, {"name": "module_apply_default/Encoder_en/KonaTransformer/Encode/TransformerStack/Layer_1/TransformerLayer/FFN/conv1/Tensordot/Reshape_1", "op": "Const", "attr": {"dtype": {"type": "DT_FLOAT"}, "value": {"tensor": {"dtype": "DT_FLOAT", "tensorShape": {"dim": [{"size": "512"}, {"size": "1536"}]}}}}}, {"name": "module_apply_default/Encoder_en/KonaTransformer/Encode/Layer_1/TransformerLayer/FFN/layer_prepostprocess/layer_norm/layer_norm_scale/ConcatPartitions/concat", "op": "Const", "attr": {"value": {"tensor": {"dtype": "DT_FLOAT", "tensorShape": {"dim": [{"size": "512"}]}}}, "dtype": {"type": "DT_FLOAT"}}}, {"name": "module_apply_default/Encoder_en/KonaTransformer/Encode/TransformerStack/Layer_1/TransformerLayer/FFN/layer_prepostprocess/layer_norm/Mean/reduction_indices", "op": "Const", "attr": {"value": {"tensor": {"dtype": "DT_INT32", "tensorShape": {"dim": [{"size": "1"}]}}}, "dtype": {"type": "DT_INT32"}}}, {"name": "module_apply_default/Encoder_en/KonaTransformer/Encode/TransformerStack/Layer_1/TransformerLayer/FFN/layer_prepostprocess/layer_norm/Mean_1/reduction_indices", "op": "Const", "attr": {"value": {"tensor": {"dtype": "DT_INT32", "tensorShape": {"dim": [{"size": "1"}]}}}, "dtype": {"type": "DT_INT32"}}}, {"name": "module_apply_default/Encoder_en/KonaTransformer/Encode/TransformerStack/Layer_1/TransformerLayer/FFN/layer_prepostprocess/layer_norm/Cast/x", "op": "Const", "attr": {"value": {"tensor": {"dtype": "DT_FLOAT", "tensorShape": {}}}, "dtype": {"type": "DT_FLOAT"}}}, {"name": "module_apply_default/Encoder_en/KonaTransformer/Encode/Layer_1/TransformerLayer/FFN/layer_prepostprocess/layer_norm/layer_norm_bias/ConcatPartitions/concat", "op": "Const", "attr": {"value": {"tensor": {"dtype": "DT_FLOAT", "tensorShape": {"dim": [{"size": "512"}]}}}, "dtype": {"type": "DT_FLOAT"}}}, {"name": "module_apply_default/Encoder_en/KonaTransformer/Encode/TransformerStack/Layer_1/TransformerLayer/FFN/ExpandDims/dim", "op": "Const", "attr": {"dtype": {"type": "DT_INT32"}, "value": {"tensor": {"dtype": "DT_INT32", "tensorShape": {}}}}}, {"name": "ConstantFolding/module_apply_default/Encoder_en/KonaTransformer/Encode/TransformerStack/Layer_1/TransformerLayer/FFN/conv1/Tensordot/ListDiff-folded-0", "op": "Const", "attr": {"dtype": {"type": "DT_INT32"}, "value": {"tensor": {"dtype": "DT_INT32", "tensorShape": {"dim": [{"size": "2"}]}}}}}, {"name": "module_apply_default/Encoder_en/KonaTransformer/Encode/TransformerStack/Layer_1/TransformerLayer/FFN/conv1/Tensordot/GatherV2/axis", "op": "Const", "attr": {"dtype": {"type": "DT_INT32"}, "value": {"tensor": {"dtype": "DT_INT32", "tensorShape": {}}}}}, {"name": "module_apply_default/Encoder_en/KonaTransformer/Encode/TransformerStack/Layer_1/TransformerLayer/FFN/conv1/Tensordot/Const_2", "op": "Const", "attr": {"value": {"tensor": {"dtype": "DT_INT32", "tensorShape": {"dim": [{"size": "1"}]}}}, "dtype": {"type": "DT_INT32"}}}, {"name": "module_apply_default/Encoder_en/KonaTransformer/Encode/TransformerStack/Layer_1/TransformerLayer/FFN/conv1/Tensordot/concat_2/axis", "op": "Const", "attr": {"dtype": {"type": "DT_INT32"}, "value": {"tensor": {"dtype": "DT_INT32", "tensorShape": {}}}}}, {"name": "module_apply_default/Encoder_en/KonaTransformer/Encode/Layer_1/TransformerLayer/FFN/conv1/bias/ConcatPartitions/concat", "op": "Const", "attr": {"dtype": {"type": "DT_FLOAT"}, "value": {"tensor": {"dtype": "DT_FLOAT", "tensorShape": {"dim": [{"size": "1536"}]}}}}}, {"name": "ConstantFolding/module_apply_default/Encoder_en/KonaTransformer/Encode/TransformerStack/Layer_1/TransformerLayer/FFN/conv2/Tensordot/ListDiff-folded-0", "op": "Const", "attr": {"value": {"tensor": {"dtype": "DT_INT32", "tensorShape": {"dim": [{"size": "2"}]}}}, "dtype": {"type": "DT_INT32"}}}, {"name": "module_apply_default/Encoder_en/KonaTransformer/Encode/TransformerStack/Layer_1/TransformerLayer/FFN/conv2/Tensordot/GatherV2/axis", "op": "Const", "attr": {"value": {"tensor": {"dtype": "DT_INT32", "tensorShape": {}}}, "dtype": {"type": "DT_INT32"}}}, {"name": "module_apply_default/Encoder_en/KonaTransformer/Encode/TransformerStack/Layer_1/TransformerLayer/FFN/conv2/Tensordot/Const_2", "op": "Const", "attr": {"value": {"tensor": {"dtype": "DT_INT32", "tensorShape": {"dim": [{"size": "1"}]}}}, "dtype": {"type": "DT_INT32"}}}, {"name": "module_apply_default/Encoder_en/KonaTransformer/Encode/TransformerStack/Layer_1/TransformerLayer/FFN/conv2/Tensordot/concat_2/axis", "op": "Const", "attr": {"value": {"tensor": {"dtype": "DT_INT32", "tensorShape": {}}}, "dtype": {"type": "DT_INT32"}}}, {"name": "module_apply_default/Encoder_en/KonaTransformer/Encode/Layer_1/TransformerLayer/FFN/conv2/bias/ConcatPartitions/concat", "op": "Const", "attr": {"value": {"tensor": {"dtype": "DT_FLOAT", "tensorShape": {"dim": [{"size": "512"}]}}}, "dtype": {"type": "DT_FLOAT"}}}, {"name": "module_apply_default/Encoder_en/KonaTransformer/Encode/TransformerStack/Layer_1/TransformerLayer/FFN/Scatter/strided_slice/stack", "op": "Const", "attr": {"value": {"tensor": {"dtype": "DT_INT32", "tensorShape": {"dim": [{"size": "1"}]}}}, "dtype": {"type": "DT_INT32"}}}, {"name": "module_apply_default/Encoder_en/KonaTransformer/Encode/TransformerStack/Layer_1/TransformerLayer/FFN/Scatter/strided_slice/stack_1", "op": "Const", "attr": {"value": {"tensor": {"dtype": "DT_INT32", "tensorShape": {"dim": [{"size": "1"}]}}}, "dtype": {"type": "DT_INT32"}}}, {"name": "module_apply_default/Encoder_en/KonaTransformer/Encode/TransformerStack/Layer_1/TransformerLayer/FFN/Scatter/strided_slice/stack_2", "op": "Const", "attr": {"dtype": {"type": "DT_INT32"}, "value": {"tensor": {"dtype": "DT_INT32", "tensorShape": {"dim": [{"size": "1"}]}}}}}, {"name": "module_apply_default/Encoder_en/KonaTransformer/Encode/TransformerStack/Layer_1/TransformerLayer/FFN/Scatter/concat/axis", "op": "Const", "attr": {"value": {"tensor": {"dtype": "DT_INT32", "tensorShape": {}}}, "dtype": {"type": "DT_INT32"}}}, {"name": "module_apply_default/Encoder_en/KonaTransformer/Encode/TransformerStack/Layer_1/TransformerLayer/MultiheadAttention/combine_heads/combine_last_two_dimensions/strided_slice/stack", "op": "Const", "attr": {"value": {"tensor": {"dtype": "DT_INT32", "tensorShape": {"dim": [{"size": "1"}]}}}, "dtype": {"type": "DT_INT32"}}}, {"name": "module_apply_default/Encoder_en/KonaTransformer/Encode/TransformerStack/Layer_1/TransformerLayer/MultiheadAttention/combine_heads/combine_last_two_dimensions/strided_slice/stack_1", "op": "Const", "attr": {"dtype": {"type": "DT_INT32"}, "value": {"tensor": {"dtype": "DT_INT32", "tensorShape": {"dim": [{"size": "1"}]}}}}}, {"name": "module_apply_default/Encoder_en/KonaTransformer/Encode/TransformerStack/Layer_1/TransformerLayer/MultiheadAttention/combine_heads/combine_last_two_dimensions/strided_slice/stack_2", "op": "Const", "attr": {"dtype": {"type": "DT_INT32"}, "value": {"tensor": {"dtype": "DT_INT32", "tensorShape": {"dim": [{"size": "1"}]}}}}}, {"name": "module_apply_default/Encoder_en/KonaTransformer/Encode/TransformerStack/Layer_1/TransformerLayer/MultiheadAttention/DotProductAttention/BaseDotProductAttention/concat/values_0", "op": "Const", "attr": {"value": {"tensor": {"dtype": "DT_INT32", "tensorShape": {"dim": [{"size": "1"}]}}}, "dtype": {"type": "DT_INT32"}}}, {"name": "module_apply_default/Encoder_en/KonaTransformer/Encode/TransformerStack/Layer_1/TransformerLayer/MultiheadAttention/DotProductAttention/BaseDotProductAttention/Slice/begin", "op": "Const", "attr": {"value": {"tensor": {"dtype": "DT_INT32", "tensorShape": {"dim": [{"size": "1"}]}}}, "dtype": {"type": "DT_INT32"}}}, {"name": "module_apply_default/Encoder_en/KonaTransformer/Encode/TransformerStack/Layer_1/TransformerLayer/MultiheadAttention/DotProductAttention/BaseDotProductAttention/Slice/size", "op": "Const", "attr": {"value": {"tensor": {"dtype": "DT_INT32", "tensorShape": {"dim": [{"size": "1"}]}}}, "dtype": {"type": "DT_INT32"}}}, {"name": "module_apply_default/Encoder_en/KonaTransformer/Encode/TransformerStack/Layer_1/TransformerLayer/MultiheadAttention/DotProductAttention/BaseDotProductAttention/concat/axis", "op": "Const", "attr": {"dtype": {"type": "DT_INT32"}, "value": {"tensor": {"dtype": "DT_INT32", "tensorShape": {}}}}}, {"name": "module_apply_default/Encoder_en/KonaTransformer/Encode/TransformerStack/Layer_1/TransformerLayer/MultiheadAttention/split_heads/split_last_dimension/strided_slice/stack", "op": "Const", "attr": {"value": {"tensor": {"dtype": "DT_INT32", "tensorShape": {"dim": [{"size": "1"}]}}}, "dtype": {"type": "DT_INT32"}}}, {"name": "module_apply_default/Encoder_en/KonaTransformer/Encode/TransformerStack/Layer_1/TransformerLayer/MultiheadAttention/split_heads/split_last_dimension/strided_slice/stack_1", "op": "Const", "attr": {"dtype": {"type": "DT_INT32"}, "value": {"tensor": {"dtype": "DT_INT32", "tensorShape": {"dim": [{"size": "1"}]}}}}}, {"name": "module_apply_default/Encoder_en/KonaTransformer/Encode/TransformerStack/Layer_1/TransformerLayer/MultiheadAttention/split_heads/split_last_dimension/strided_slice/stack_2", "op": "Const", "attr": {"value": {"tensor": {"dtype": "DT_INT32", "tensorShape": {"dim": [{"size": "1"}]}}}, "dtype": {"type": "DT_INT32"}}}, {"name": "module_apply_default/Encoder_en/KonaTransformer/Encode/TransformerStack/Layer_1/TransformerLayer/MultiheadAttention/split_heads/split_last_dimension/strided_slice_1/stack", "op": "Const", "attr": {"value": {"tensor": {"dtype": "DT_INT32", "tensorShape": {"dim": [{"size": "1"}]}}}, "dtype": {"type": "DT_INT32"}}}, {"name": "module_apply_default/Encoder_en/KonaTransformer/Encode/TransformerStack/Layer_1/TransformerLayer/MultiheadAttention/split_heads/split_last_dimension/strided_slice_1/stack_1", "op": "Const", "attr": {"dtype": {"type": "DT_INT32"}, "value": {"tensor": {"dtype": "DT_INT32", "tensorShape": {"dim": [{"size": "1"}]}}}}}, {"name": "module_apply_default/Encoder_en/KonaTransformer/Encode/TransformerStack/Layer_1/TransformerLayer/MultiheadAttention/split_heads/split_last_dimension/strided_slice_1/stack_2", "op": "Const", "attr": {"dtype": {"type": "DT_INT32"}, "value": {"tensor": {"dtype": "DT_INT32", "tensorShape": {"dim": [{"size": "1"}]}}}}}, {"name": "module_apply_default/Encoder_en/KonaTransformer/Encode/TransformerStack/Layer_1/TransformerLayer/MultiheadAttention/split_heads/split_last_dimension/Reshape/shape/2", "op": "Const", "attr": {"value": {"tensor": {"dtype": "DT_INT32", "tensorShape": {}}}, "dtype": {"type": "DT_INT32"}}}, {"name": "module_apply_default/Encoder_en/KonaTransformer/Encode/TransformerStack/Layer_1/TransformerLayer/MultiheadAttention/split_heads/split_last_dimension/Reshape/shape/3", "op": "Const", "attr": {"value": {"tensor": {"dtype": "DT_INT32", "tensorShape": {}}}, "dtype": {"type": "DT_INT32"}}}, {"name": "module_apply_default/Encoder_en/KonaTransformer/Encode/TransformerStack/Layer_1/TransformerLayer/MultiheadAttention/split_heads/transpose/perm", "op": "Const", "attr": {"value": {"tensor": {"dtype": "DT_INT32", "tensorShape": {"dim": [{"size": "4"}]}}}, "dtype": {"type": "DT_INT32"}}}, {"name": "module_apply_default/Encoder_en/KonaTransformer/Encode/TransformerStack/Layer_1/TransformerLayer/MultiheadAttention/mul/y", "op": "Const", "attr": {"dtype": {"type": "DT_FLOAT"}, "value": {"tensor": {"dtype": "DT_FLOAT", "tensorShape": {}}}}}, {"name": "module_apply_default/Encoder_en/KonaTransformer/Encode/TransformerStack/Layer_1/TransformerLayer/MultiheadAttention/split_heads_1/split_last_dimension/strided_slice/stack", "op": "Const", "attr": {"value": {"tensor": {"dtype": "DT_INT32", "tensorShape": {"dim": [{"size": "1"}]}}}, "dtype": {"type": "DT_INT32"}}}, {"name": "module_apply_default/Encoder_en/KonaTransformer/Encode/TransformerStack/Layer_1/TransformerLayer/MultiheadAttention/split_heads_1/split_last_dimension/strided_slice/stack_1", "op": "Const", "attr": {"value": {"tensor": {"dtype": "DT_INT32", "tensorShape": {"dim": [{"size": "1"}]}}}, "dtype": {"type": "DT_INT32"}}}, {"name": "module_apply_default/Encoder_en/KonaTransformer/Encode/TransformerStack/Layer_1/TransformerLayer/MultiheadAttention/split_heads_1/split_last_dimension/strided_slice/stack_2", "op": "Const", "attr": {"dtype": {"type": "DT_INT32"}, "value": {"tensor": {"dtype": "DT_INT32", "tensorShape": {"dim": [{"size": "1"}]}}}}}, {"name": "module_apply_default/Encoder_en/KonaTransformer/Encode/TransformerStack/Layer_1/TransformerLayer/MultiheadAttention/split_heads_1/split_last_dimension/strided_slice_1/stack", "op": "Const", "attr": {"value": {"tensor": {"dtype": "DT_INT32", "tensorShape": {"dim": [{"size": "1"}]}}}, "dtype": {"type": "DT_INT32"}}}, {"name": "module_apply_default/Encoder_en/KonaTransformer/Encode/TransformerStack/Layer_1/TransformerLayer/MultiheadAttention/split_heads_1/split_last_dimension/strided_slice_1/stack_1", "op": "Const", "attr": {"value": {"tensor": {"dtype": "DT_INT32", "tensorShape": {"dim": [{"size": "1"}]}}}, "dtype": {"type": "DT_INT32"}}}, {"name": "module_apply_default/Encoder_en/KonaTransformer/Encode/TransformerStack/Layer_1/TransformerLayer/MultiheadAttention/split_heads_1/split_last_dimension/strided_slice_1/stack_2", "op": "Const", "attr": {"dtype": {"type": "DT_INT32"}, "value": {"tensor": {"dtype": "DT_INT32", "tensorShape": {"dim": [{"size": "1"}]}}}}}, {"name": "module_apply_default/Encoder_en/KonaTransformer/Encode/TransformerStack/Layer_1/TransformerLayer/MultiheadAttention/split_heads_1/split_last_dimension/Reshape/shape/2", "op": "Const", "attr": {"value": {"tensor": {"dtype": "DT_INT32", "tensorShape": {}}}, "dtype": {"type": "DT_INT32"}}}, {"name": "module_apply_default/Encoder_en/KonaTransformer/Encode/TransformerStack/Layer_1/TransformerLayer/MultiheadAttention/split_heads_1/split_last_dimension/Reshape/shape/3", "op": "Const", "attr": {"value": {"tensor": {"dtype": "DT_INT32", "tensorShape": {}}}, "dtype": {"type": "DT_INT32"}}}, {"name": "module_apply_default/Encoder_en/KonaTransformer/Encode/TransformerStack/Layer_1/TransformerLayer/MultiheadAttention/split_heads_1/transpose/perm", "op": "Const", "attr": {"dtype": {"type": "DT_INT32"}, "value": {"tensor": {"dtype": "DT_INT32", "tensorShape": {"dim": [{"size": "4"}]}}}}}, {"name": "module_apply_default/Encoder_en/KonaTransformer/Encode/TransformerStack/Layer_1/TransformerLayer/MultiheadAttention/DotProductAttention/attention_bias_ignore_padding/mul/y", "op": "Const", "attr": {"value": {"tensor": {"dtype": "DT_FLOAT", "tensorShape": {}}}, "dtype": {"type": "DT_FLOAT"}}}, {"name": "module_apply_default/Encoder_en/KonaTransformer/Encode/TransformerStack/Layer_1/TransformerLayer/MultiheadAttention/DotProductAttention/attention_bias_ignore_padding/ExpandDims/dim", "op": "Const", "attr": {"value": {"tensor": {"dtype": "DT_INT32", "tensorShape": {}}}, "dtype": {"type": "DT_INT32"}}}, {"name": "module_apply_default/Encoder_en/KonaTransformer/Encode/TransformerStack/Layer_1/TransformerLayer/MultiheadAttention/DotProductAttention/attention_bias_ignore_padding/ExpandDims_1/dim", "op": "Const", "attr": {"value": {"tensor": {"dtype": "DT_INT32", "tensorShape": {}}}, "dtype": {"type": "DT_INT32"}}}, {"name": "module_apply_default/Encoder_en/KonaTransformer/Encode/TransformerStack/Layer_1/TransformerLayer/MultiheadAttention/split_heads_2/split_last_dimension/strided_slice/stack", "op": "Const", "attr": {"value": {"tensor": {"dtype": "DT_INT32", "tensorShape": {"dim": [{"size": "1"}]}}}, "dtype": {"type": "DT_INT32"}}}, {"name": "module_apply_default/Encoder_en/KonaTransformer/Encode/TransformerStack/Layer_1/TransformerLayer/MultiheadAttention/split_heads_2/split_last_dimension/strided_slice/stack_1", "op": "Const", "attr": {"dtype": {"type": "DT_INT32"}, "value": {"tensor": {"dtype": "DT_INT32", "tensorShape": {"dim": [{"size": "1"}]}}}}}, {"name": "module_apply_default/Encoder_en/KonaTransformer/Encode/TransformerStack/Layer_1/TransformerLayer/MultiheadAttention/split_heads_2/split_last_dimension/strided_slice/stack_2", "op": "Const", "attr": {"value": {"tensor": {"dtype": "DT_INT32", "tensorShape": {"dim": [{"size": "1"}]}}}, "dtype": {"type": "DT_INT32"}}}, {"name": "module_apply_default/Encoder_en/KonaTransformer/Encode/Layer_1/TransformerLayer/layer_prepostprocess/layer_norm/layer_norm_scale/ConcatPartitions/concat", "op": "Const", "attr": {"dtype": {"type": "DT_FLOAT"}, "value": {"tensor": {"dtype": "DT_FLOAT", "tensorShape": {"dim": [{"size": "512"}]}}}}}, {"name": "module_apply_default/Encoder_en/KonaTransformer/Encode/TransformerStack/Layer_1/TransformerLayer/layer_prepostprocess/layer_norm/Mean/reduction_indices", "op": "Const", "attr": {"value": {"tensor": {"dtype": "DT_INT32", "tensorShape": {"dim": [{"size": "1"}]}}}, "dtype": {"type": "DT_INT32"}}}, {"name": "module_apply_default/Encoder_en/KonaTransformer/Encode/TransformerStack/Layer_1/TransformerLayer/layer_prepostprocess/layer_norm/Mean_1/reduction_indices", "op": "Const", "attr": {"value": {"tensor": {"dtype": "DT_INT32", "tensorShape": {"dim": [{"size": "1"}]}}}, "dtype": {"type": "DT_INT32"}}}, {"name": "module_apply_default/Encoder_en/KonaTransformer/Encode/TransformerStack/Layer_1/TransformerLayer/layer_prepostprocess/layer_norm/Cast/x", "op": "Const", "attr": {"value": {"tensor": {"dtype": "DT_FLOAT", "tensorShape": {}}}, "dtype": {"type": "DT_FLOAT"}}}, {"name": "module_apply_default/Encoder_en/KonaTransformer/Encode/Layer_1/TransformerLayer/layer_prepostprocess/layer_norm/layer_norm_bias/ConcatPartitions/concat", "op": "Const", "attr": {"value": {"tensor": {"dtype": "DT_FLOAT", "tensorShape": {"dim": [{"size": "512"}]}}}, "dtype": {"type": "DT_FLOAT"}}}, {"name": "module_apply_default/Encoder_en/KonaTransformer/Encode/TransformerStack/Layer_1/TransformerLayer/MultiheadAttention/ExpandDims/dim", "op": "Const", "attr": {"dtype": {"type": "DT_INT32"}, "value": {"tensor": {"dtype": "DT_INT32", "tensorShape": {}}}}}, {"name": "module/Encoder_en/KonaTransformer/Encode/Layer_1/TransformerLayer/MultiheadAttention/qkv_transform_single/kernel/part_0", "op": "Const", "attr": {"dtype": {"type": "DT_FLOAT"}, "value": {"tensor": {"dtype": "DT_FLOAT", "tensorShape": {"dim": [{"size": "1"}, {"size": "1"}, {"size": "512"}, {"size": "1536"}]}}}}}, {"name": "module_apply_default/Encoder_en/KonaTransformer/Encode/Layer_1/TransformerLayer/MultiheadAttention/qkv_transform_single/bias/ConcatPartitions/concat", "op": "Const", "attr": {"dtype": {"type": "DT_FLOAT"}, "value": {"tensor": {"dtype": "DT_FLOAT", "tensorShape": {"dim": [{"size": "1536"}]}}}}}, {"name": "module_apply_default/Encoder_en/KonaTransformer/Encode/TransformerStack/Layer_1/TransformerLayer/MultiheadAttention/Const", "op": "Const", "attr": {"dtype": {"type": "DT_INT32"}, "value": {"tensor": {"dtype": "DT_INT32", "tensorShape": {"dim": [{"size": "3"}]}}}}}, {"name": "module_apply_default/Encoder_en/KonaTransformer/Encode/TransformerStack/Layer_1/TransformerLayer/MultiheadAttention/split/split_dim", "op": "Const", "attr": {"dtype": {"type": "DT_INT32"}, "value": {"tensor": {"dtype": "DT_INT32", "tensorShape": {}}}}}, {"name": "module_apply_default/Encoder_en/KonaTransformer/Encode/TransformerStack/Layer_1/TransformerLayer/MultiheadAttention/split_heads_2/split_last_dimension/strided_slice_1/stack", "op": "Const", "attr": {"value": {"tensor": {"dtype": "DT_INT32", "tensorShape": {"dim": [{"size": "1"}]}}}, "dtype": {"type": "DT_INT32"}}}, {"name": "module_apply_default/Encoder_en/KonaTransformer/Encode/TransformerStack/Layer_1/TransformerLayer/MultiheadAttention/split_heads_2/split_last_dimension/strided_slice_1/stack_1", "op": "Const", "attr": {"dtype": {"type": "DT_INT32"}, "value": {"tensor": {"dtype": "DT_INT32", "tensorShape": {"dim": [{"size": "1"}]}}}}}, {"name": "module_apply_default/Encoder_en/KonaTransformer/Encode/TransformerStack/Layer_1/TransformerLayer/MultiheadAttention/split_heads_2/split_last_dimension/strided_slice_1/stack_2", "op": "Const", "attr": {"value": {"tensor": {"dtype": "DT_INT32", "tensorShape": {"dim": [{"size": "1"}]}}}, "dtype": {"type": "DT_INT32"}}}, {"name": "module_apply_default/Encoder_en/KonaTransformer/Encode/TransformerStack/Layer_1/TransformerLayer/MultiheadAttention/split_heads_2/split_last_dimension/Reshape/shape/2", "op": "Const", "attr": {"value": {"tensor": {"dtype": "DT_INT32", "tensorShape": {}}}, "dtype": {"type": "DT_INT32"}}}, {"name": "module_apply_default/Encoder_en/KonaTransformer/Encode/TransformerStack/Layer_1/TransformerLayer/MultiheadAttention/split_heads_2/split_last_dimension/Reshape/shape/3", "op": "Const", "attr": {"value": {"tensor": {"dtype": "DT_INT32", "tensorShape": {}}}, "dtype": {"type": "DT_INT32"}}}, {"name": "module_apply_default/Encoder_en/KonaTransformer/Encode/TransformerStack/Layer_1/TransformerLayer/MultiheadAttention/split_heads_2/transpose/perm", "op": "Const", "attr": {"value": {"tensor": {"dtype": "DT_INT32", "tensorShape": {"dim": [{"size": "4"}]}}}, "dtype": {"type": "DT_INT32"}}}, {"name": "module_apply_default/Encoder_en/KonaTransformer/Encode/TransformerStack/Layer_1/TransformerLayer/MultiheadAttention/combine_heads/transpose/perm", "op": "Const", "attr": {"value": {"tensor": {"dtype": "DT_INT32", "tensorShape": {"dim": [{"size": "4"}]}}}, "dtype": {"type": "DT_INT32"}}}, {"name": "module_apply_default/Encoder_en/KonaTransformer/Encode/TransformerStack/Layer_1/TransformerLayer/MultiheadAttention/combine_heads/combine_last_two_dimensions/strided_slice_1/stack", "op": "Const", "attr": {"value": {"tensor": {"dtype": "DT_INT32", "tensorShape": {"dim": [{"size": "1"}]}}}, "dtype": {"type": "DT_INT32"}}}, {"name": "module_apply_default/Encoder_en/KonaTransformer/Encode/TransformerStack/Layer_1/TransformerLayer/MultiheadAttention/combine_heads/combine_last_two_dimensions/strided_slice_1/stack_1", "op": "Const", "attr": {"value": {"tensor": {"dtype": "DT_INT32", "tensorShape": {"dim": [{"size": "1"}]}}}, "dtype": {"type": "DT_INT32"}}}, {"name": "module_apply_default/Encoder_en/KonaTransformer/Encode/TransformerStack/Layer_1/TransformerLayer/MultiheadAttention/combine_heads/combine_last_two_dimensions/strided_slice_1/stack_2", "op": "Const", "attr": {"dtype": {"type": "DT_INT32"}, "value": {"tensor": {"dtype": "DT_INT32", "tensorShape": {"dim": [{"size": "1"}]}}}}}, {"name": "module_apply_default/Encoder_en/KonaTransformer/Encode/TransformerStack/Layer_1/TransformerLayer/MultiheadAttention/combine_heads/combine_last_two_dimensions/Reshape/shape/2", "op": "Const", "attr": {"dtype": {"type": "DT_INT32"}, "value": {"tensor": {"dtype": "DT_INT32", "tensorShape": {}}}}}, {"name": "module_apply_default/Encoder_en/KonaTransformer/Encode/TransformerStack/Layer_1/TransformerLayer/MultiheadAttention/ExpandDims_1/dim", "op": "Const", "attr": {"dtype": {"type": "DT_INT32"}, "value": {"tensor": {"dtype": "DT_INT32", "tensorShape": {}}}}}, {"name": "module/Encoder_en/KonaTransformer/Encode/Layer_1/TransformerLayer/MultiheadAttention/output_transform_single/kernel/part_0", "op": "Const", "attr": {"value": {"tensor": {"dtype": "DT_FLOAT", "tensorShape": {"dim": [{"size": "1"}, {"size": "1"}, {"size": "512"}, {"size": "512"}]}}}, "dtype": {"type": "DT_FLOAT"}}}, {"name": "module_apply_default/Encoder_en/KonaTransformer/Encode/Layer_1/TransformerLayer/MultiheadAttention/output_transform_single/bias/ConcatPartitions/concat", "op": "Const", "attr": {"value": {"tensor": {"dtype": "DT_FLOAT", "tensorShape": {"dim": [{"size": "512"}]}}}, "dtype": {"type": "DT_FLOAT"}}}, {"name": "module_apply_default/Encoder_en/KonaTransformer/Encode/TransformerStack/Layer_0/TransformerLayer/FFN/conv2/Tensordot/Const", "op": "Const", "attr": {"value": {"tensor": {"dtype": "DT_INT32", "tensorShape": {"dim": [{"size": "1"}]}}}, "dtype": {"type": "DT_INT32"}}}, {"name": "module_apply_default/Encoder_en/KonaTransformer/Encode/TransformerStack/Layer_0/TransformerLayer/FFN/conv2/Tensordot/add_1", "op": "Const", "attr": {"dtype": {"type": "DT_INT32"}, "value": {"tensor": {"dtype": "DT_INT32", "tensorShape": {"dim": [{"size": "1"}]}}}}}, {"name": "module_apply_default/Encoder_en/KonaTransformer/Encode/TransformerStack/Layer_0/TransformerLayer/FFN/conv2/Tensordot/GatherV2_1/axis", "op": "Const", "attr": {"value": {"tensor": {"dtype": "DT_INT32", "tensorShape": {}}}, "dtype": {"type": "DT_INT32"}}}, {"name": "module_apply_default/Encoder_en/KonaTransformer/Encode/TransformerStack/Layer_0/TransformerLayer/FFN/conv2/Tensordot/Const_1", "op": "Const", "attr": {"dtype": {"type": "DT_INT32"}, "value": {"tensor": {"dtype": "DT_INT32", "tensorShape": {"dim": [{"size": "1"}]}}}}}, {"name": "module_apply_default/Encoder_en/KonaTransformer/Encode/TransformerStack/Layer_0/TransformerLayer/FFN/conv2/Tensordot/Reshape_1", "op": "Const", "attr": {"value": {"tensor": {"dtype": "DT_FLOAT", "tensorShape": {"dim": [{"size": "1536"}, {"size": "512"}]}}}, "dtype": {"type": "DT_FLOAT"}}}, {"name": "module_apply_default/Encoder_en/KonaTransformer/Encode/TransformerStack/Layer_0/TransformerLayer/FFN/conv1/Tensordot/Const", "op": "Const", "attr": {"value": {"tensor": {"dtype": "DT_INT32", "tensorShape": {"dim": [{"size": "1"}]}}}, "dtype": {"type": "DT_INT32"}}}, {"name": "module_apply_default/Encoder_en/KonaTransformer/Encode/TransformerStack/Layer_0/TransformerLayer/FFN/conv1/Tensordot/add_1", "op": "Const", "attr": {"value": {"tensor": {"dtype": "DT_INT32", "tensorShape": {"dim": [{"size": "1"}]}}}, "dtype": {"type": "DT_INT32"}}}, {"name": "module_apply_default/Encoder_en/KonaTransformer/Encode/TransformerStack/Layer_0/TransformerLayer/FFN/conv1/Tensordot/GatherV2_1/axis", "op": "Const", "attr": {"value": {"tensor": {"dtype": "DT_INT32", "tensorShape": {}}}, "dtype": {"type": "DT_INT32"}}}, {"name": "module_apply_default/Encoder_en/KonaTransformer/Encode/TransformerStack/Layer_0/TransformerLayer/FFN/conv1/Tensordot/Const_1", "op": "Const", "attr": {"value": {"tensor": {"dtype": "DT_INT32", "tensorShape": {"dim": [{"size": "1"}]}}}, "dtype": {"type": "DT_INT32"}}}, {"name": "module_apply_default/Encoder_en/KonaTransformer/Encode/TransformerStack/Layer_0/TransformerLayer/FFN/conv1/Tensordot/Reshape_1", "op": "Const", "attr": {"value": {"tensor": {"dtype": "DT_FLOAT", "tensorShape": {"dim": [{"size": "512"}, {"size": "1536"}]}}}, "dtype": {"type": "DT_FLOAT"}}}, {"name": "module_apply_default/Encoder_en/KonaTransformer/Encode/Layer_0/TransformerLayer/FFN/layer_prepostprocess/layer_norm/layer_norm_scale/ConcatPartitions/concat", "op": "Const", "attr": {"value": {"tensor": {"dtype": "DT_FLOAT", "tensorShape": {"dim": [{"size": "512"}]}}}, "dtype": {"type": "DT_FLOAT"}}}, {"name": "module_apply_default/Encoder_en/KonaTransformer/Encode/TransformerStack/Layer_0/TransformerLayer/FFN/layer_prepostprocess/layer_norm/Mean/reduction_indices", "op": "Const", "attr": {"value": {"tensor": {"dtype": "DT_INT32", "tensorShape": {"dim": [{"size": "1"}]}}}, "dtype": {"type": "DT_INT32"}}}, {"name": "module_apply_default/Encoder_en/KonaTransformer/Encode/TransformerStack/Layer_0/TransformerLayer/FFN/layer_prepostprocess/layer_norm/Mean_1/reduction_indices", "op": "Const", "attr": {"value": {"tensor": {"dtype": "DT_INT32", "tensorShape": {"dim": [{"size": "1"}]}}}, "dtype": {"type": "DT_INT32"}}}, {"name": "module_apply_default/Encoder_en/KonaTransformer/Encode/TransformerStack/Layer_0/TransformerLayer/FFN/layer_prepostprocess/layer_norm/Cast/x", "op": "Const", "attr": {"value": {"tensor": {"dtype": "DT_FLOAT", "tensorShape": {}}}, "dtype": {"type": "DT_FLOAT"}}}, {"name": "module_apply_default/Encoder_en/KonaTransformer/Encode/Layer_0/TransformerLayer/FFN/layer_prepostprocess/layer_norm/layer_norm_bias/ConcatPartitions/concat", "op": "Const", "attr": {"value": {"tensor": {"dtype": "DT_FLOAT", "tensorShape": {"dim": [{"size": "512"}]}}}, "dtype": {"type": "DT_FLOAT"}}}, {"name": "module_apply_default/Encoder_en/KonaTransformer/Encode/TransformerStack/Layer_0/TransformerLayer/FFN/ExpandDims/dim", "op": "Const", "attr": {"value": {"tensor": {"dtype": "DT_INT32", "tensorShape": {}}}, "dtype": {"type": "DT_INT32"}}}, {"name": "ConstantFolding/module_apply_default/Encoder_en/KonaTransformer/Encode/TransformerStack/Layer_0/TransformerLayer/FFN/conv1/Tensordot/ListDiff-folded-0", "op": "Const", "attr": {"value": {"tensor": {"dtype": "DT_INT32", "tensorShape": {"dim": [{"size": "2"}]}}}, "dtype": {"type": "DT_INT32"}}}, {"name": "module_apply_default/Encoder_en/KonaTransformer/Encode/TransformerStack/Layer_0/TransformerLayer/FFN/conv1/Tensordot/GatherV2/axis", "op": "Const", "attr": {"value": {"tensor": {"dtype": "DT_INT32", "tensorShape": {}}}, "dtype": {"type": "DT_INT32"}}}, {"name": "module_apply_default/Encoder_en/KonaTransformer/Encode/TransformerStack/Layer_0/TransformerLayer/FFN/conv1/Tensordot/Const_2", "op": "Const", "attr": {"value": {"tensor": {"dtype": "DT_INT32", "tensorShape": {"dim": [{"size": "1"}]}}}, "dtype": {"type": "DT_INT32"}}}, {"name": "module_apply_default/Encoder_en/KonaTransformer/Encode/TransformerStack/Layer_0/TransformerLayer/FFN/conv1/Tensordot/concat_2/axis", "op": "Const", "attr": {"value": {"tensor": {"dtype": "DT_INT32", "tensorShape": {}}}, "dtype": {"type": "DT_INT32"}}}, {"name": "module_apply_default/Encoder_en/KonaTransformer/Encode/Layer_0/TransformerLayer/FFN/conv1/bias/ConcatPartitions/concat", "op": "Const", "attr": {"value": {"tensor": {"dtype": "DT_FLOAT", "tensorShape": {"dim": [{"size": "1536"}]}}}, "dtype": {"type": "DT_FLOAT"}}}, {"name": "ConstantFolding/module_apply_default/Encoder_en/KonaTransformer/Encode/TransformerStack/Layer_0/TransformerLayer/FFN/conv2/Tensordot/ListDiff-folded-0", "op": "Const", "attr": {"value": {"tensor": {"dtype": "DT_INT32", "tensorShape": {"dim": [{"size": "2"}]}}}, "dtype": {"type": "DT_INT32"}}}, {"name": "module_apply_default/Encoder_en/KonaTransformer/Encode/TransformerStack/Layer_0/TransformerLayer/FFN/conv2/Tensordot/GatherV2/axis", "op": "Const", "attr": {"value": {"tensor": {"dtype": "DT_INT32", "tensorShape": {}}}, "dtype": {"type": "DT_INT32"}}}, {"name": "module_apply_default/Encoder_en/KonaTransformer/Encode/TransformerStack/Layer_0/TransformerLayer/FFN/conv2/Tensordot/Const_2", "op": "Const", "attr": {"value": {"tensor": {"dtype": "DT_INT32", "tensorShape": {"dim": [{"size": "1"}]}}}, "dtype": {"type": "DT_INT32"}}}, {"name": "module_apply_default/Encoder_en/KonaTransformer/Encode/TransformerStack/Layer_0/TransformerLayer/FFN/conv2/Tensordot/concat_2/axis", "op": "Const", "attr": {"value": {"tensor": {"dtype": "DT_INT32", "tensorShape": {}}}, "dtype": {"type": "DT_INT32"}}}, {"name": "module_apply_default/Encoder_en/KonaTransformer/Encode/Layer_0/TransformerLayer/FFN/conv2/bias/ConcatPartitions/concat", "op": "Const", "attr": {"value": {"tensor": {"dtype": "DT_FLOAT", "tensorShape": {"dim": [{"size": "512"}]}}}, "dtype": {"type": "DT_FLOAT"}}}, {"name": "module_apply_default/Encoder_en/KonaTransformer/Encode/TransformerStack/Layer_0/TransformerLayer/FFN/Scatter/strided_slice/stack", "op": "Const", "attr": {"value": {"tensor": {"dtype": "DT_INT32", "tensorShape": {"dim": [{"size": "1"}]}}}, "dtype": {"type": "DT_INT32"}}}, {"name": "module_apply_default/Encoder_en/KonaTransformer/Encode/TransformerStack/Layer_0/TransformerLayer/FFN/Scatter/strided_slice/stack_1", "op": "Const", "attr": {"value": {"tensor": {"dtype": "DT_INT32", "tensorShape": {"dim": [{"size": "1"}]}}}, "dtype": {"type": "DT_INT32"}}}, {"name": "module_apply_default/Encoder_en/KonaTransformer/Encode/TransformerStack/Layer_0/TransformerLayer/FFN/Scatter/strided_slice/stack_2", "op": "Const", "attr": {"value": {"tensor": {"dtype": "DT_INT32", "tensorShape": {"dim": [{"size": "1"}]}}}, "dtype": {"type": "DT_INT32"}}}, {"name": "module_apply_default/Encoder_en/KonaTransformer/Encode/TransformerStack/Layer_0/TransformerLayer/FFN/Scatter/concat/axis", "op": "Const", "attr": {"value": {"tensor": {"dtype": "DT_INT32", "tensorShape": {}}}, "dtype": {"type": "DT_INT32"}}}, {"name": "module_apply_default/Encoder_en/KonaTransformer/Encode/TransformerStack/Layer_0/TransformerLayer/MultiheadAttention/combine_heads/combine_last_two_dimensions/strided_slice/stack", "op": "Const", "attr": {"value": {"tensor": {"dtype": "DT_INT32", "tensorShape": {"dim": [{"size": "1"}]}}}, "dtype": {"type": "DT_INT32"}}}, {"name": "module_apply_default/Encoder_en/KonaTransformer/Encode/TransformerStack/Layer_0/TransformerLayer/MultiheadAttention/combine_heads/combine_last_two_dimensions/strided_slice/stack_1", "op": "Const", "attr": {"value": {"tensor": {"dtype": "DT_INT32", "tensorShape": {"dim": [{"size": "1"}]}}}, "dtype": {"type": "DT_INT32"}}}, {"name": "module_apply_default/Encoder_en/KonaTransformer/Encode/TransformerStack/Layer_0/TransformerLayer/MultiheadAttention/combine_heads/combine_last_two_dimensions/strided_slice/stack_2", "op": "Const", "attr": {"value": {"tensor": {"dtype": "DT_INT32", "tensorShape": {"dim": [{"size": "1"}]}}}, "dtype": {"type": "DT_INT32"}}}, {"name": "module_apply_default/Encoder_en/KonaTransformer/Encode/TransformerStack/Layer_0/TransformerLayer/MultiheadAttention/DotProductAttention/BaseDotProductAttention/concat/values_0", "op": "Const", "attr": {"value": {"tensor": {"dtype": "DT_INT32", "tensorShape": {"dim": [{"size": "1"}]}}}, "dtype": {"type": "DT_INT32"}}}, {"name": "module_apply_default/Encoder_en/KonaTransformer/Encode/TransformerStack/Layer_0/TransformerLayer/MultiheadAttention/DotProductAttention/BaseDotProductAttention/Slice/begin", "op": "Const", "attr": {"value": {"tensor": {"dtype": "DT_INT32", "tensorShape": {"dim": [{"size": "1"}]}}}, "dtype": {"type": "DT_INT32"}}}, {"name": "module_apply_default/Encoder_en/KonaTransformer/Encode/TransformerStack/Layer_0/TransformerLayer/MultiheadAttention/DotProductAttention/BaseDotProductAttention/Slice/size", "op": "Const", "attr": {"value": {"tensor": {"dtype": "DT_INT32", "tensorShape": {"dim": [{"size": "1"}]}}}, "dtype": {"type": "DT_INT32"}}}, {"name": "module_apply_default/Encoder_en/KonaTransformer/Encode/TransformerStack/Layer_0/TransformerLayer/MultiheadAttention/DotProductAttention/BaseDotProductAttention/concat/axis", "op": "Const", "attr": {"value": {"tensor": {"dtype": "DT_INT32", "tensorShape": {}}}, "dtype": {"type": "DT_INT32"}}}, {"name": "module_apply_default/Encoder_en/KonaTransformer/Encode/TransformerStack/Layer_0/TransformerLayer/MultiheadAttention/split_heads/split_last_dimension/strided_slice/stack", "op": "Const", "attr": {"value": {"tensor": {"dtype": "DT_INT32", "tensorShape": {"dim": [{"size": "1"}]}}}, "dtype": {"type": "DT_INT32"}}}, {"name": "module_apply_default/Encoder_en/KonaTransformer/Encode/TransformerStack/Layer_0/TransformerLayer/MultiheadAttention/split_heads/split_last_dimension/strided_slice/stack_1", "op": "Const", "attr": {"value": {"tensor": {"dtype": "DT_INT32", "tensorShape": {"dim": [{"size": "1"}]}}}, "dtype": {"type": "DT_INT32"}}}, {"name": "module_apply_default/Encoder_en/KonaTransformer/Encode/TransformerStack/Layer_0/TransformerLayer/MultiheadAttention/split_heads/split_last_dimension/strided_slice/stack_2", "op": "Const", "attr": {"value": {"tensor": {"dtype": "DT_INT32", "tensorShape": {"dim": [{"size": "1"}]}}}, "dtype": {"type": "DT_INT32"}}}, {"name": "module_apply_default/Encoder_en/KonaTransformer/Encode/TransformerStack/Layer_0/TransformerLayer/MultiheadAttention/split_heads/split_last_dimension/strided_slice_1/stack", "op": "Const", "attr": {"value": {"tensor": {"dtype": "DT_INT32", "tensorShape": {"dim": [{"size": "1"}]}}}, "dtype": {"type": "DT_INT32"}}}, {"name": "module_apply_default/Encoder_en/KonaTransformer/Encode/TransformerStack/Layer_0/TransformerLayer/MultiheadAttention/split_heads/split_last_dimension/strided_slice_1/stack_1", "op": "Const", "attr": {"value": {"tensor": {"dtype": "DT_INT32", "tensorShape": {"dim": [{"size": "1"}]}}}, "dtype": {"type": "DT_INT32"}}}, {"name": "module_apply_default/Encoder_en/KonaTransformer/Encode/TransformerStack/Layer_0/TransformerLayer/MultiheadAttention/split_heads/split_last_dimension/strided_slice_1/stack_2", "op": "Const", "attr": {"value": {"tensor": {"dtype": "DT_INT32", "tensorShape": {"dim": [{"size": "1"}]}}}, "dtype": {"type": "DT_INT32"}}}, {"name": "module_apply_default/Encoder_en/KonaTransformer/Encode/TransformerStack/Layer_0/TransformerLayer/MultiheadAttention/split_heads/split_last_dimension/Reshape/shape/2", "op": "Const", "attr": {"value": {"tensor": {"dtype": "DT_INT32", "tensorShape": {}}}, "dtype": {"type": "DT_INT32"}}}, {"name": "module_apply_default/Encoder_en/KonaTransformer/Encode/TransformerStack/Layer_0/TransformerLayer/MultiheadAttention/split_heads/split_last_dimension/Reshape/shape/3", "op": "Const", "attr": {"value": {"tensor": {"dtype": "DT_INT32", "tensorShape": {}}}, "dtype": {"type": "DT_INT32"}}}, {"name": "module_apply_default/Encoder_en/KonaTransformer/Encode/TransformerStack/Layer_0/TransformerLayer/MultiheadAttention/split_heads/transpose/perm", "op": "Const", "attr": {"value": {"tensor": {"dtype": "DT_INT32", "tensorShape": {"dim": [{"size": "4"}]}}}, "dtype": {"type": "DT_INT32"}}}, {"name": "module_apply_default/Encoder_en/KonaTransformer/Encode/TransformerStack/Layer_0/TransformerLayer/MultiheadAttention/mul/y", "op": "Const", "attr": {"value": {"tensor": {"dtype": "DT_FLOAT", "tensorShape": {}}}, "dtype": {"type": "DT_FLOAT"}}}, {"name": "module_apply_default/Encoder_en/KonaTransformer/Encode/TransformerStack/Layer_0/TransformerLayer/MultiheadAttention/split_heads_1/split_last_dimension/strided_slice/stack", "op": "Const", "attr": {"value": {"tensor": {"dtype": "DT_INT32", "tensorShape": {"dim": [{"size": "1"}]}}}, "dtype": {"type": "DT_INT32"}}}, {"name": "module_apply_default/Encoder_en/KonaTransformer/Encode/TransformerStack/Layer_0/TransformerLayer/MultiheadAttention/split_heads_1/split_last_dimension/strided_slice/stack_1", "op": "Const", "attr": {"value": {"tensor": {"dtype": "DT_INT32", "tensorShape": {"dim": [{"size": "1"}]}}}, "dtype": {"type": "DT_INT32"}}}, {"name": "module_apply_default/Encoder_en/KonaTransformer/Encode/TransformerStack/Layer_0/TransformerLayer/MultiheadAttention/split_heads_1/split_last_dimension/strided_slice/stack_2", "op": "Const", "attr": {"value": {"tensor": {"dtype": "DT_INT32", "tensorShape": {"dim": [{"size": "1"}]}}}, "dtype": {"type": "DT_INT32"}}}, {"name": "module_apply_default/Encoder_en/KonaTransformer/Encode/TransformerStack/Layer_0/TransformerLayer/MultiheadAttention/split_heads_1/split_last_dimension/strided_slice_1/stack", "op": "Const", "attr": {"value": {"tensor": {"dtype": "DT_INT32", "tensorShape": {"dim": [{"size": "1"}]}}}, "dtype": {"type": "DT_INT32"}}}, {"name": "module_apply_default/Encoder_en/KonaTransformer/Encode/TransformerStack/Layer_0/TransformerLayer/MultiheadAttention/split_heads_1/split_last_dimension/strided_slice_1/stack_1", "op": "Const", "attr": {"value": {"tensor": {"dtype": "DT_INT32", "tensorShape": {"dim": [{"size": "1"}]}}}, "dtype": {"type": "DT_INT32"}}}, {"name": "module_apply_default/Encoder_en/KonaTransformer/Encode/TransformerStack/Layer_0/TransformerLayer/MultiheadAttention/split_heads_1/split_last_dimension/strided_slice_1/stack_2", "op": "Const", "attr": {"value": {"tensor": {"dtype": "DT_INT32", "tensorShape": {"dim": [{"size": "1"}]}}}, "dtype": {"type": "DT_INT32"}}}, {"name": "module_apply_default/Encoder_en/KonaTransformer/Encode/TransformerStack/Layer_0/TransformerLayer/MultiheadAttention/split_heads_1/split_last_dimension/Reshape/shape/2", "op": "Const", "attr": {"value": {"tensor": {"dtype": "DT_INT32", "tensorShape": {}}}, "dtype": {"type": "DT_INT32"}}}, {"name": "module_apply_default/Encoder_en/KonaTransformer/Encode/TransformerStack/Layer_0/TransformerLayer/MultiheadAttention/split_heads_1/split_last_dimension/Reshape/shape/3", "op": "Const", "attr": {"value": {"tensor": {"dtype": "DT_INT32", "tensorShape": {}}}, "dtype": {"type": "DT_INT32"}}}, {"name": "module_apply_default/Encoder_en/KonaTransformer/Encode/TransformerStack/Layer_0/TransformerLayer/MultiheadAttention/split_heads_1/transpose/perm", "op": "Const", "attr": {"value": {"tensor": {"dtype": "DT_INT32", "tensorShape": {"dim": [{"size": "4"}]}}}, "dtype": {"type": "DT_INT32"}}}, {"name": "module_apply_default/Encoder_en/KonaTransformer/Encode/TransformerStack/Layer_0/TransformerLayer/MultiheadAttention/DotProductAttention/attention_bias_ignore_padding/mul/y", "op": "Const", "attr": {"value": {"tensor": {"dtype": "DT_FLOAT", "tensorShape": {}}}, "dtype": {"type": "DT_FLOAT"}}}, {"name": "module_apply_default/Encoder_en/KonaTransformer/Encode/TransformerStack/Layer_0/TransformerLayer/MultiheadAttention/DotProductAttention/attention_bias_ignore_padding/ExpandDims/dim", "op": "Const", "attr": {"value": {"tensor": {"dtype": "DT_INT32", "tensorShape": {}}}, "dtype": {"type": "DT_INT32"}}}, {"name": "module_apply_default/Encoder_en/KonaTransformer/Encode/TransformerStack/Layer_0/TransformerLayer/MultiheadAttention/DotProductAttention/attention_bias_ignore_padding/ExpandDims_1/dim", "op": "Const", "attr": {"value": {"tensor": {"dtype": "DT_INT32", "tensorShape": {}}}, "dtype": {"type": "DT_INT32"}}}, {"name": "module_apply_default/Encoder_en/KonaTransformer/Encode/TransformerStack/Layer_0/TransformerLayer/MultiheadAttention/split_heads_2/split_last_dimension/strided_slice/stack", "op": "Const", "attr": {"value": {"tensor": {"dtype": "DT_INT32", "tensorShape": {"dim": [{"size": "1"}]}}}, "dtype": {"type": "DT_INT32"}}}, {"name": "module_apply_default/Encoder_en/KonaTransformer/Encode/TransformerStack/Layer_0/TransformerLayer/MultiheadAttention/split_heads_2/split_last_dimension/strided_slice/stack_1", "op": "Const", "attr": {"value": {"tensor": {"dtype": "DT_INT32", "tensorShape": {"dim": [{"size": "1"}]}}}, "dtype": {"type": "DT_INT32"}}}, {"name": "module_apply_default/Encoder_en/KonaTransformer/Encode/TransformerStack/Layer_0/TransformerLayer/MultiheadAttention/split_heads_2/split_last_dimension/strided_slice/stack_2", "op": "Const", "attr": {"value": {"tensor": {"dtype": "DT_INT32", "tensorShape": {"dim": [{"size": "1"}]}}}, "dtype": {"type": "DT_INT32"}}}, {"name": "module_apply_default/Encoder_en/KonaTransformer/Encode/Layer_0/TransformerLayer/layer_prepostprocess/layer_norm/layer_norm_scale/ConcatPartitions/concat", "op": "Const", "attr": {"value": {"tensor": {"dtype": "DT_FLOAT", "tensorShape": {"dim": [{"size": "256"}]}}}, "dtype": {"type": "DT_FLOAT"}}}, {"name": "module_apply_default/Encoder_en/KonaTransformer/Encode/TransformerStack/Layer_0/TransformerLayer/layer_prepostprocess/layer_norm/Mean/reduction_indices", "op": "Const", "attr": {"value": {"tensor": {"dtype": "DT_INT32", "tensorShape": {"dim": [{"size": "1"}]}}}, "dtype": {"type": "DT_INT32"}}}, {"name": "module_apply_default/Encoder_en/KonaTransformer/Encode/TransformerStack/Layer_0/TransformerLayer/layer_prepostprocess/layer_norm/Mean_1/reduction_indices", "op": "Const", "attr": {"value": {"tensor": {"dtype": "DT_INT32", "tensorShape": {"dim": [{"size": "1"}]}}}, "dtype": {"type": "DT_INT32"}}}, {"name": "module_apply_default/Encoder_en/KonaTransformer/Encode/TransformerStack/Layer_0/TransformerLayer/layer_prepostprocess/layer_norm/Cast/x", "op": "Const", "attr": {"value": {"tensor": {"dtype": "DT_FLOAT", "tensorShape": {}}}, "dtype": {"type": "DT_FLOAT"}}}, {"name": "module_apply_default/Encoder_en/KonaTransformer/Encode/Layer_0/TransformerLayer/layer_prepostprocess/layer_norm/layer_norm_bias/ConcatPartitions/concat", "op": "Const", "attr": {"value": {"tensor": {"dtype": "DT_FLOAT", "tensorShape": {"dim": [{"size": "256"}]}}}, "dtype": {"type": "DT_FLOAT"}}}, {"name": "module_apply_default/Encoder_en/KonaTransformer/Encode/TransformerStack/Layer_0/TransformerLayer/MultiheadAttention/ExpandDims/dim", "op": "Const", "attr": {"value": {"tensor": {"dtype": "DT_INT32", "tensorShape": {}}}, "dtype": {"type": "DT_INT32"}}}, {"name": "module/Encoder_en/KonaTransformer/Encode/Layer_0/TransformerLayer/MultiheadAttention/qkv_transform_single/kernel/part_0", "op": "Const", "attr": {"value": {"tensor": {"dtype": "DT_FLOAT", "tensorShape": {"dim": [{"size": "1"}, {"size": "1"}, {"size": "256"}, {"size": "768"}]}}}, "dtype": {"type": "DT_FLOAT"}}}, {"name": "module_apply_default/Encoder_en/KonaTransformer/Encode/Layer_0/TransformerLayer/MultiheadAttention/qkv_transform_single/bias/ConcatPartitions/concat", "op": "Const", "attr": {"value": {"tensor": {"dtype": "DT_FLOAT", "tensorShape": {"dim": [{"size": "768"}]}}}, "dtype": {"type": "DT_FLOAT"}}}, {"name": "module_apply_default/Encoder_en/KonaTransformer/Encode/TransformerStack/Layer_0/TransformerLayer/MultiheadAttention/Const", "op": "Const", "attr": {"value": {"tensor": {"dtype": "DT_INT32", "tensorShape": {"dim": [{"size": "3"}]}}}, "dtype": {"type": "DT_INT32"}}}, {"name": "module_apply_default/Encoder_en/KonaTransformer/Encode/TransformerStack/Layer_0/TransformerLayer/MultiheadAttention/split/split_dim", "op": "Const", "attr": {"value": {"tensor": {"dtype": "DT_INT32", "tensorShape": {}}}, "dtype": {"type": "DT_INT32"}}}, {"name": "module_apply_default/Encoder_en/KonaTransformer/Encode/TransformerStack/Layer_0/TransformerLayer/MultiheadAttention/split_heads_2/split_last_dimension/strided_slice_1/stack", "op": "Const", "attr": {"value": {"tensor": {"dtype": "DT_INT32", "tensorShape": {"dim": [{"size": "1"}]}}}, "dtype": {"type": "DT_INT32"}}}, {"name": "module_apply_default/Encoder_en/KonaTransformer/Encode/TransformerStack/Layer_0/TransformerLayer/MultiheadAttention/split_heads_2/split_last_dimension/strided_slice_1/stack_1", "op": "Const", "attr": {"value": {"tensor": {"dtype": "DT_INT32", "tensorShape": {"dim": [{"size": "1"}]}}}, "dtype": {"type": "DT_INT32"}}}, {"name": "module_apply_default/Encoder_en/KonaTransformer/Encode/TransformerStack/Layer_0/TransformerLayer/MultiheadAttention/split_heads_2/split_last_dimension/strided_slice_1/stack_2", "op": "Const", "attr": {"value": {"tensor": {"dtype": "DT_INT32", "tensorShape": {"dim": [{"size": "1"}]}}}, "dtype": {"type": "DT_INT32"}}}, {"name": "module_apply_default/Encoder_en/KonaTransformer/Encode/TransformerStack/Layer_0/TransformerLayer/MultiheadAttention/split_heads_2/split_last_dimension/Reshape/shape/2", "op": "Const", "attr": {"value": {"tensor": {"dtype": "DT_INT32", "tensorShape": {}}}, "dtype": {"type": "DT_INT32"}}}, {"name": "module_apply_default/Encoder_en/KonaTransformer/Encode/TransformerStack/Layer_0/TransformerLayer/MultiheadAttention/split_heads_2/split_last_dimension/Reshape/shape/3", "op": "Const", "attr": {"value": {"tensor": {"dtype": "DT_INT32", "tensorShape": {}}}, "dtype": {"type": "DT_INT32"}}}, {"name": "module_apply_default/Encoder_en/KonaTransformer/Encode/TransformerStack/Layer_0/TransformerLayer/MultiheadAttention/split_heads_2/transpose/perm", "op": "Const", "attr": {"value": {"tensor": {"dtype": "DT_INT32", "tensorShape": {"dim": [{"size": "4"}]}}}, "dtype": {"type": "DT_INT32"}}}, {"name": "module_apply_default/Encoder_en/KonaTransformer/Encode/TransformerStack/Layer_0/TransformerLayer/MultiheadAttention/combine_heads/transpose/perm", "op": "Const", "attr": {"value": {"tensor": {"dtype": "DT_INT32", "tensorShape": {"dim": [{"size": "4"}]}}}, "dtype": {"type": "DT_INT32"}}}, {"name": "module_apply_default/Encoder_en/KonaTransformer/Encode/TransformerStack/Layer_0/TransformerLayer/MultiheadAttention/combine_heads/combine_last_two_dimensions/strided_slice_1/stack", "op": "Const", "attr": {"value": {"tensor": {"dtype": "DT_INT32", "tensorShape": {"dim": [{"size": "1"}]}}}, "dtype": {"type": "DT_INT32"}}}, {"name": "module_apply_default/Encoder_en/KonaTransformer/Encode/TransformerStack/Layer_0/TransformerLayer/MultiheadAttention/combine_heads/combine_last_two_dimensions/strided_slice_1/stack_1", "op": "Const", "attr": {"value": {"tensor": {"dtype": "DT_INT32", "tensorShape": {"dim": [{"size": "1"}]}}}, "dtype": {"type": "DT_INT32"}}}, {"name": "module_apply_default/Encoder_en/KonaTransformer/Encode/TransformerStack/Layer_0/TransformerLayer/MultiheadAttention/combine_heads/combine_last_two_dimensions/strided_slice_1/stack_2", "op": "Const", "attr": {"value": {"tensor": {"dtype": "DT_INT32", "tensorShape": {"dim": [{"size": "1"}]}}}, "dtype": {"type": "DT_INT32"}}}, {"name": "module_apply_default/Encoder_en/KonaTransformer/Encode/TransformerStack/Layer_0/TransformerLayer/MultiheadAttention/combine_heads/combine_last_two_dimensions/Reshape/shape/2", "op": "Const", "attr": {"value": {"tensor": {"dtype": "DT_INT32", "tensorShape": {}}}, "dtype": {"type": "DT_INT32"}}}, {"name": "module_apply_default/Encoder_en/KonaTransformer/Encode/TransformerStack/Layer_0/TransformerLayer/MultiheadAttention/ExpandDims_1/dim", "op": "Const", "attr": {"value": {"tensor": {"dtype": "DT_INT32", "tensorShape": {}}}, "dtype": {"type": "DT_INT32"}}}, {"name": "module/Encoder_en/KonaTransformer/Encode/Layer_0/TransformerLayer/MultiheadAttention/output_transform_single/kernel/part_0", "op": "Const", "attr": {"value": {"tensor": {"dtype": "DT_FLOAT", "tensorShape": {"dim": [{"size": "1"}, {"size": "1"}, {"size": "256"}, {"size": "512"}]}}}, "dtype": {"type": "DT_FLOAT"}}}, {"name": "module_apply_default/Encoder_en/KonaTransformer/Encode/Layer_0/TransformerLayer/MultiheadAttention/output_transform_single/bias/ConcatPartitions/concat", "op": "Const", "attr": {"value": {"tensor": {"dtype": "DT_FLOAT", "tensorShape": {"dim": [{"size": "512"}]}}}, "dtype": {"type": "DT_FLOAT"}}}, {"name": "module/Embeddings_en", "op": "Const", "attr": {"value": {"tensor": {"dtype": "DT_FLOAT", "tensorShape": {"dim": [{"size": "8002"}, {"size": "256"}]}}}, "dtype": {"type": "DT_FLOAT"}}}, {"name": "module_apply_default/Encoder_en/KonaTransformer/Encode/embedding_lookup/axis", "op": "Const", "attr": {"value": {"tensor": {"dtype": "DT_INT32", "tensorShape": {}}}, "dtype": {"type": "DT_INT32"}}}, {"name": "module_apply_default/Encoder_en/KonaTransformer/Encode/Scatter/strided_slice/stack", "op": "Const", "attr": {"value": {"tensor": {"dtype": "DT_INT32", "tensorShape": {"dim": [{"size": "1"}]}}}, "dtype": {"type": "DT_INT32"}}}, {"name": "module_apply_default/Encoder_en/KonaTransformer/Encode/Scatter/strided_slice/stack_1", "op": "Const", "attr": {"value": {"tensor": {"dtype": "DT_INT32", "tensorShape": {"dim": [{"size": "1"}]}}}, "dtype": {"type": "DT_INT32"}}}, {"name": "module_apply_default/Encoder_en/KonaTransformer/Encode/Scatter/strided_slice/stack_2", "op": "Const", "attr": {"value": {"tensor": {"dtype": "DT_INT32", "tensorShape": {"dim": [{"size": "1"}]}}}, "dtype": {"type": "DT_INT32"}}}, {"name": "module_apply_default/Encoder_en/KonaTransformer/Encode/Scatter/concat/axis", "op": "Const", "attr": {"value": {"tensor": {"dtype": "DT_INT32", "tensorShape": {}}}, "dtype": {"type": "DT_INT32"}}}, {"name": "module_apply_default/Encoder_en/KonaTransformer/Encode/TransformerStack/Layer_0/AddTimingSignal/strided_slice_2/stack", "op": "Const", "attr": {"value": {"tensor": {"dtype": "DT_INT32", "tensorShape": {"dim": [{"size": "2"}]}}}, "dtype": {"type": "DT_INT32"}}}, {"name": "module_apply_default/Encoder_en/KonaTransformer/Encode/TransformerStack/Layer_0/AddTimingSignal/strided_slice_2/stack_1", "op": "Const", "attr": {"value": {"tensor": {"dtype": "DT_INT32", "tensorShape": {"dim": [{"size": "2"}]}}}, "dtype": {"type": "DT_INT32"}}}, {"name": "module_apply_default/Encoder_en/KonaTransformer/Encode/TransformerStack/Layer_0/AddTimingSignal/strided_slice_2/stack_2", "op": "Const", "attr": {"value": {"tensor": {"dtype": "DT_INT32", "tensorShape": {"dim": [{"size": "2"}]}}}, "dtype": {"type": "DT_INT32"}}}, {"name": "module_apply_default/Encoder_en/KonaTransformer/Encode/TransformerStack/Layer_0/AddTimingSignal/TimingSignal/ExpandDims/dim", "op": "Const", "attr": {"value": {"tensor": {"dtype": "DT_INT32", "tensorShape": {}}}, "dtype": {"type": "DT_INT32"}}}, {"name": "module_apply_default/Encoder_en/KonaTransformer/Encode/TransformerStack/Layer_0/AddTimingSignal/TimingSignal/ExpandDims_1", "op": "Const", "attr": {"value": {"tensor": {"dtype": "DT_FLOAT", "tensorShape": {"dim": [{"size": "1"}, {"size": "128"}]}}}, "dtype": {"type": "DT_FLOAT"}}}, {"name": "module_apply_default/Encoder_en/KonaTransformer/Encode/TransformerStack/Layer_0/AddTimingSignal/TimingSignal/concat/axis", "op": "Const", "attr": {"value": {"tensor": {"dtype": "DT_INT32", "tensorShape": {}}}, "dtype": {"type": "DT_INT32"}}}, {"name": "module_apply_default/Encoder_en/KonaTransformer/Encode/TransformerStack/Layer_0/AddTimingSignal/Scatter/strided_slice/stack", "op": "Const", "attr": {"value": {"tensor": {"dtype": "DT_INT32", "tensorShape": {"dim": [{"size": "1"}]}}}, "dtype": {"type": "DT_INT32"}}}, {"name": "module_apply_default/Encoder_en/KonaTransformer/Encode/TransformerStack/Layer_0/AddTimingSignal/Scatter/strided_slice/stack_1", "op": "Const", "attr": {"value": {"tensor": {"dtype": "DT_INT32", "tensorShape": {"dim": [{"size": "1"}]}}}, "dtype": {"type": "DT_INT32"}}}, {"name": "module_apply_default/Encoder_en/KonaTransformer/Encode/TransformerStack/Layer_0/AddTimingSignal/Scatter/strided_slice/stack_2", "op": "Const", "attr": {"value": {"tensor": {"dtype": "DT_INT32", "tensorShape": {"dim": [{"size": "1"}]}}}, "dtype": {"type": "DT_INT32"}}}, {"name": "module_apply_default/Encoder_en/KonaTransformer/Encode/TransformerStack/Layer_0/AddTimingSignal/Scatter/concat/axis", "op": "Const", "attr": {"value": {"tensor": {"dtype": "DT_INT32", "tensorShape": {}}}, "dtype": {"type": "DT_INT32"}}}, {"name": "module_apply_default/Encoder_en/KonaTransformer/Encode/Layer_0/TransformerLayer/dense/kernel/ConcatPartitions/concat", "op": "Const", "attr": {"value": {"tensor": {"dtype": "DT_FLOAT", "tensorShape": {"dim": [{"size": "256"}, {"size": "512"}]}}}, "dtype": {"type": "DT_FLOAT"}}}, {"name": "module_apply_default/Encoder_en/KonaTransformer/Encode/Layer_0/TransformerLayer/dense/bias/ConcatPartitions/concat", "op": "Const", "attr": {"value": {"tensor": {"dtype": "DT_FLOAT", "tensorShape": {"dim": [{"size": "512"}]}}}, "dtype": {"type": "DT_FLOAT"}}}, {"name": "module_apply_default/Encoder_en/KonaTransformer/Encode/TransformerStack/Layer_0/TransformerLayer/AdjustResidualInput/Scatter/strided_slice/stack", "op": "Const", "attr": {"value": {"tensor": {"dtype": "DT_INT32", "tensorShape": {"dim": [{"size": "1"}]}}}, "dtype": {"type": "DT_INT32"}}}, {"name": "module_apply_default/Encoder_en/KonaTransformer/Encode/TransformerStack/Layer_0/TransformerLayer/AdjustResidualInput/Scatter/strided_slice/stack_1", "op": "Const", "attr": {"value": {"tensor": {"dtype": "DT_INT32", "tensorShape": {"dim": [{"size": "1"}]}}}, "dtype": {"type": "DT_INT32"}}}, {"name": "module_apply_default/Encoder_en/KonaTransformer/Encode/TransformerStack/Layer_0/TransformerLayer/AdjustResidualInput/Scatter/strided_slice/stack_2", "op": "Const", "attr": {"value": {"tensor": {"dtype": "DT_INT32", "tensorShape": {"dim": [{"size": "1"}]}}}, "dtype": {"type": "DT_INT32"}}}, {"name": "module_apply_default/Encoder_en/KonaTransformer/Encode/TransformerStack/Layer_0/TransformerLayer/AdjustResidualInput/Scatter/concat/axis", "op": "Const", "attr": {"value": {"tensor": {"dtype": "DT_INT32", "tensorShape": {}}}, "dtype": {"type": "DT_INT32"}}}, {"name": "module_apply_default/Encoder_en/KonaTransformer/strided_slice/stack", "op": "Const", "attr": {"value": {"tensor": {"dtype": "DT_INT32", "tensorShape": {"dim": [{"size": "1"}]}}}, "dtype": {"type": "DT_INT32"}}}, {"name": "module_apply_default/Encoder_en/KonaTransformer/strided_slice/stack_1", "op": "Const", "attr": {"value": {"tensor": {"dtype": "DT_INT32", "tensorShape": {"dim": [{"size": "1"}]}}}, "dtype": {"type": "DT_INT32"}}}, {"name": "module_apply_default/Encoder_en/KonaTransformer/strided_slice/stack_2", "op": "Const", "attr": {"value": {"tensor": {"dtype": "DT_INT32", "tensorShape": {"dim": [{"size": "1"}]}}}, "dtype": {"type": "DT_INT32"}}}, {"name": "module_apply_default/Encoder_en/KonaTransformer/SequenceMask/Const_1", "op": "Const", "attr": {"value": {"tensor": {"dtype": "DT_INT32", "tensorShape": {}}}, "dtype": {"type": "DT_INT32"}}}, {"name": "module_apply_default/Encoder_en/KonaTransformer/SequenceMask/ExpandDims/dim", "op": "Const", "attr": {"value": {"tensor": {"dtype": "DT_INT32", "tensorShape": {}}}, "dtype": {"type": "DT_INT32"}}}, {"name": "module_apply_default/Encoder_en/KonaTransformer/ExpandDims/dim", "op": "Const", "attr": {"value": {"tensor": {"dtype": "DT_INT32", "tensorShape": {}}}, "dtype": {"type": "DT_INT32"}}}, {"name": "module_apply_default/Encoder_en/KonaTransformer/Sum/reduction_indices", "op": "Const", "attr": {"value": {"tensor": {"dtype": "DT_INT32", "tensorShape": {}}}, "dtype": {"type": "DT_INT32"}}}, {"name": "module_apply_default/Encoder_en/KonaTransformer/ClipToMaxLength/Const", "op": "Const", "attr": {"value": {"tensor": {"dtype": "DT_INT64", "tensorShape": {}}}, "dtype": {"type": "DT_INT64"}}}, {"name": "module_apply_default/Encoder_en/KonaTransformer/ClipToMaxLength/GatherV2/axis", "op": "Const", "attr": {"value": {"tensor": {"dtype": "DT_INT32", "tensorShape": {}}}, "dtype": {"type": "DT_INT32"}}}, {"name": "module_apply_default/Encoder_en/KonaTransformer/ClipToMaxLength/Max/reduction_indices", "op": "Const", "attr": {"value": {"tensor": {"dtype": "DT_INT32", "tensorShape": {}}}, "dtype": {"type": "DT_INT32"}}}, {"name": "module_apply_default/Encoder_en/KonaTransformer/ClipToMaxLength/ones_like", "op": "Const", "attr": {"value": {"tensor": {"dtype": "DT_INT64", "tensorShape": {"dim": [{"size": "2"}]}}}, "dtype": {"type": "DT_INT64"}}}, {"name": "indices", "op": "Placeholder", "attr": {"shape": {"shape": {"dim": [{"size": "-1"}, {"size": "2"}]}}, "dtype": {"type": "DT_INT64"}}}, {"name": "module_apply_default/Encoder_en/KonaTransformer/ClipToMaxLength/strided_slice/stack", "op": "Const", "attr": {"value": {"tensor": {"dtype": "DT_INT32", "tensorShape": {"dim": [{"size": "2"}]}}}, "dtype": {"type": "DT_INT32"}}}, {"name": "module_apply_default/Encoder_en/KonaTransformer/ClipToMaxLength/strided_slice/stack_1", "op": "Const", "attr": {"value": {"tensor": {"dtype": "DT_INT32", "tensorShape": {"dim": [{"size": "2"}]}}}, "dtype": {"type": "DT_INT32"}}}, {"name": "module_apply_default/Encoder_en/KonaTransformer/ClipToMaxLength/strided_slice/stack_2", "op": "Const", "attr": {"value": {"tensor": {"dtype": "DT_INT32", "tensorShape": {"dim": [{"size": "2"}]}}}, "dtype": {"type": "DT_INT32"}}}, {"name": "module_apply_default/Encoder_en/KonaTransformer/ClipToMaxLength/Less/y", "op": "Const", "attr": {"value": {"tensor": {"dtype": "DT_INT64", "tensorShape": {}}}, "dtype": {"type": "DT_INT64"}}}, {"name": "module_apply_default/Encoder_en/KonaTransformer/ClipToMaxLength/Reshape/shape", "op": "Const", "attr": {"value": {"tensor": {"dtype": "DT_INT32", "tensorShape": {"dim": [{"size": "1"}]}}}, "dtype": {"type": "DT_INT32"}}}, {"name": "module_apply_default/Encoder_en/KonaTransformer/ClipToMaxLength/GatherV2_1/axis", "op": "Const", "attr": {"value": {"tensor": {"dtype": "DT_INT32", "tensorShape": {}}}, "dtype": {"type": "DT_INT32"}}}, {"name": "module_apply_default/Encoder_en/KonaTransformer/Encode/SparseToDense/default_value", "op": "Const", "attr": {"value": {"tensor": {"dtype": "DT_INT64", "tensorShape": {}}}, "dtype": {"type": "DT_INT64"}}}, {"name": "module_apply_default/Encoder_en/KonaTransformer/Encode/Greater/y", "op": "Const", "attr": {"value": {"tensor": {"dtype": "DT_INT64", "tensorShape": {}}}, "dtype": {"type": "DT_INT64"}}}, {"name": "module_apply_default/Encoder_en/KonaTransformer/Encode/TransformerStack/MaskLength/Sum/reduction_indices", "op": "Const", "attr": {"value": {"tensor": {"dtype": "DT_INT32", "tensorShape": {}}}, "dtype": {"type": "DT_INT32"}}}, {"name": "module_apply_default/Encoder_en/KonaTransformer/Maximum/y", "op": "Const", "attr": {"value": {"tensor": {"dtype": "DT_INT32", "tensorShape": {}}}, "dtype": {"type": "DT_INT32"}}}, {"name": "module_apply_default/Encoder_en/KonaTransformer/ExpandDims_1/dim", "op": "Const", "attr": {"value": {"tensor": {"dtype": "DT_INT32", "tensorShape": {}}}, "dtype": {"type": "DT_INT32"}}}, {"name": "module/Encoder_en/hidden_layers/tanh_layer_0/weights", "op": "Const", "attr": {"value": {"tensor": {"dtype": "DT_FLOAT", "tensorShape": {"dim": [{"size": "512"}, {"size": "512"}]}}}, "dtype": {"type": "DT_FLOAT"}}}, {"name": "module/Encoder_en/hidden_layers/tanh_layer_0/bias", "op": "Const", "attr": {"value": {"tensor": {"dtype": "DT_FLOAT", "tensorShape": {"dim": [{"size": "512"}]}}}, "dtype": {"type": "DT_FLOAT"}}}, {"name": "module_apply_default/Encoder_en/hidden_layers/l2_normalize/Sum/reduction_indices", "op": "Const", "attr": {"value": {"tensor": {"dtype": "DT_INT32", "tensorShape": {}}}, "dtype": {"type": "DT_INT32"}}}, {"name": "module_apply_default/Encoder_en/hidden_layers/l2_normalize/Maximum/y", "op": "Const", "attr": {"value": {"tensor": {"dtype": "DT_FLOAT", "tensorShape": {}}}, "dtype": {"type": "DT_FLOAT"}}}, {"name": "values", "op": "Placeholder", "attr": {"dtype": {"type": "DT_INT64"}, "shape": {"shape": {"dim": [{"size": "-1"}]}}}}, {"name": "module_apply_default/Encoder_en/KonaTransformer/ClipToMaxLength/strided_slice", "op": "StridedSlice", "input": ["indices", "module_apply_default/Encoder_en/KonaTransformer/ClipToMaxLength/strided_slice/stack", "module_apply_default/Encoder_en/KonaTransformer/ClipToMaxLength/strided_slice/stack_1", "module_apply_default/Encoder_en/KonaTransformer/ClipToMaxLength/strided_slice/stack_2"], "attr": {"T": {"type": "DT_INT64"}, "Index": {"type": "DT_INT32"}, "shrink_axis_mask": {"i": "2"}, "ellipsis_mask": {"i": "0"}, "begin_mask": {"i": "1"}, "new_axis_mask": {"i": "0"}, "end_mask": {"i": "1"}}}, {"name": "module_apply_default/Encoder_en/KonaTransformer/ClipToMaxLength/Less", "op": "Less", "input": ["module_apply_default/Encoder_en/KonaTransformer/ClipToMaxLength/strided_slice", "module_apply_default/Encoder_en/KonaTransformer/ClipToMaxLength/Less/y"], "attr": {"T": {"type": "DT_INT64"}}}, {"name": "module_apply_default/Encoder_en/KonaTransformer/ClipToMaxLength/Where", "op": "Where", "input": ["module_apply_default/Encoder_en/KonaTransformer/ClipToMaxLength/Less"], "attr": {"T": {"type": "DT_BOOL"}}}, {"name": "module_apply_default/Encoder_en/KonaTransformer/ClipToMaxLength/Reshape", "op": "Reshape", "input": ["module_apply_default/Encoder_en/KonaTransformer/ClipToMaxLength/Where", "module_apply_default/Encoder_en/KonaTransformer/ClipToMaxLength/Reshape/shape"], "attr": {"T": {"type": "DT_INT64"}, "Tshape": {"type": "DT_INT32"}}}, {"name": "module_apply_default/Encoder_en/KonaTransformer/ClipToMaxLength/GatherV2", "op": "GatherV2", "input": ["indices", "module_apply_default/Encoder_en/KonaTransformer/ClipToMaxLength/Reshape", "module_apply_default/Encoder_en/KonaTransformer/ClipToMaxLength/GatherV2/axis"], "attr": {"Tindices": {"type": "DT_INT64"}, "Tparams": {"type": "DT_INT64"}, "Taxis": {"type": "DT_INT32"}, "batch_dims": {"i": "0"}}}, {"name": "module_apply_default/Encoder_en/KonaTransformer/ClipToMaxLength/GatherV2_1", "op": "GatherV2", "input": ["values", "module_apply_default/Encoder_en/KonaTransformer/ClipToMaxLength/Reshape", "module_apply_default/Encoder_en/KonaTransformer/ClipToMaxLength/GatherV2_1/axis"], "attr": {"Tindices": {"type": "DT_INT64"}, "Tparams": {"type": "DT_INT64"}, "Taxis": {"type": "DT_INT32"}, "batch_dims": {"i": "0"}}}, {"name": "module_apply_default/Encoder_en/KonaTransformer/ClipToMaxLength/Max", "op": "Max", "input": ["module_apply_default/Encoder_en/KonaTransformer/ClipToMaxLength/GatherV2", "module_apply_default/Encoder_en/KonaTransformer/ClipToMaxLength/Max/reduction_indices"], "attr": {"T": {"type": "DT_INT64"}, "keep_dims": {"b": false}, "Tidx": {"type": "DT_INT32"}}}, {"name": "module_apply_default/Encoder_en/KonaTransformer/Encode/embedding_lookup", "op": "GatherV2", "input": ["module/Embeddings_en", "module_apply_default/Encoder_en/KonaTransformer/ClipToMaxLength/GatherV2_1", "module_apply_default/Encoder_en/KonaTransformer/Encode/embedding_lookup/axis"], "attr": {"Tindices": {"type": "DT_INT64"}, "Tparams": {"type": "DT_FLOAT"}, "Taxis": {"type": "DT_INT32"}, "batch_dims": {"i": "0"}}}, {"name": "module_apply_default/Encoder_en/KonaTransformer/ClipToMaxLength/Add", "op": "Add", "input": ["module_apply_default/Encoder_en/KonaTransformer/ClipToMaxLength/Max", "module_apply_default/Encoder_en/KonaTransformer/ClipToMaxLength/ones_like"], "attr": {"T": {"type": "DT_INT64"}}}, {"name": "module_apply_default/Encoder_en/KonaTransformer/Encode/Scatter/Shape", "op": "Shape", "input": ["module_apply_default/Encoder_en/KonaTransformer/Encode/embedding_lookup"], "attr": {"T": {"type": "DT_FLOAT"}, "out_type": {"type": "DT_INT32"}}}, {"name": "module_apply_default/Encoder_en/KonaTransformer/ClipToMaxLength/Maximum", "op": "Maximum", "input": ["module_apply_default/Encoder_en/KonaTransformer/ClipToMaxLength/Const", "module_apply_default/Encoder_en/KonaTransformer/ClipToMaxLength/Add"], "attr": {"T": {"type": "DT_INT64"}}}, {"name": "module_apply_default/Encoder_en/KonaTransformer/Encode/Scatter/strided_slice", "op": "StridedSlice", "input": ["module_apply_default/Encoder_en/KonaTransformer/Encode/Scatter/Shape", "module_apply_default/Encoder_en/KonaTransformer/Encode/Scatter/strided_slice/stack", "module_apply_default/Encoder_en/KonaTransformer/Encode/Scatter/strided_slice/stack_1", "module_apply_default/Encoder_en/KonaTransformer/Encode/Scatter/strided_slice/stack_2"], "attr": {"T": {"type": "DT_INT32"}, "Index": {"type": "DT_INT32"}, "shrink_axis_mask": {"i": "0"}, "begin_mask": {"i": "0"}, "ellipsis_mask": {"i": "0"}, "new_axis_mask": {"i": "0"}, "end_mask": {"i": "1"}}}, {"name": "module_apply_default/Encoder_en/KonaTransformer/Encode/SparseToDense", "op": "SparseToDense", "input": ["module_apply_default/Encoder_en/KonaTransformer/ClipToMaxLength/GatherV2", "module_apply_default/Encoder_en/KonaTransformer/ClipToMaxLength/Maximum", "module_apply_default/Encoder_en/KonaTransformer/ClipToMaxLength/GatherV2_1", "module_apply_default/Encoder_en/KonaTransformer/Encode/SparseToDense/default_value"], "attr": {"Tindices": {"type": "DT_INT64"}, "T": {"type": "DT_INT64"}, "validate_indices": {"b": true}}}, {"name": "module_apply_default/Encoder_en/KonaTransformer/Encode/Greater", "op": "Greater", "input": ["module_apply_default/Encoder_en/KonaTransformer/Encode/SparseToDense", "module_apply_default/Encoder_en/KonaTransformer/Encode/Greater/y"], "attr": {"T": {"type": "DT_INT64"}}}, {"name": "module_apply_default/Encoder_en/KonaTransformer/Encode/TransformerStack/Layer_1/TransformerLayer/FFN/StoreMask/Shape", "op": "Shape", "input": ["module_apply_default/Encoder_en/KonaTransformer/Encode/Greater"], "attr": {"out_type": {"type": "DT_INT32"}, "T": {"type": "DT_BOOL"}}}, {"name": "module_apply_default/Encoder_en/KonaTransformer/Encode/TransformerStack/Layer_1/TransformerLayer/FFN/StoreMask/Where", "op": "Where", "input": ["module_apply_default/Encoder_en/KonaTransformer/Encode/Greater"], "attr": {"T": {"type": "DT_BOOL"}}}, {"name": "module_apply_default/Encoder_en/KonaTransformer/Encode/TransformerStack/Layer_1/TransformerLayer/MultiheadAttention/DotProductAttention/LogicalNot", "op": "LogicalNot", "input": ["module_apply_default/Encoder_en/KonaTransformer/Encode/Greater"]}, {"name": "module_apply_default/Encoder_en/KonaTransformer/Encode/TransformerStack/Layer_0/TransformerLayer/FFN/StoreMask/Shape", "op": "Shape", "input": ["module_apply_default/Encoder_en/KonaTransformer/Encode/Greater"], "attr": {"T": {"type": "DT_BOOL"}, "out_type": {"type": "DT_INT32"}}}, {"name": "module_apply_default/Encoder_en/KonaTransformer/Encode/TransformerStack/Layer_0/TransformerLayer/FFN/StoreMask/Where", "op": "Where", "input": ["module_apply_default/Encoder_en/KonaTransformer/Encode/Greater"], "attr": {"T": {"type": "DT_BOOL"}}}, {"name": "module_apply_default/Encoder_en/KonaTransformer/Encode/TransformerStack/Layer_0/TransformerLayer/MultiheadAttention/DotProductAttention/LogicalNot", "op": "LogicalNot", "input": ["module_apply_default/Encoder_en/KonaTransformer/Encode/Greater"]}, {"name": "module_apply_default/Encoder_en/KonaTransformer/Encode/TransformerStack/Layer_0/TransformerLayer/AdjustResidualInput/StoreMask/Shape", "op": "Shape", "input": ["module_apply_default/Encoder_en/KonaTransformer/Encode/Greater"], "attr": {"T": {"type": "DT_BOOL"}, "out_type": {"type": "DT_INT32"}}}, {"name": "module_apply_default/Encoder_en/KonaTransformer/Encode/TransformerStack/Layer_0/AddTimingSignal/StoreMask/Shape", "op": "Shape", "input": ["module_apply_default/Encoder_en/KonaTransformer/Encode/Greater"], "attr": {"out_type": {"type": "DT_INT32"}, "T": {"type": "DT_BOOL"}}}, {"name": "module_apply_default/Encoder_en/KonaTransformer/Encode/StoreMask/Where", "op": "Where", "input": ["module_apply_default/Encoder_en/KonaTransformer/Encode/Greater"], "attr": {"T": {"type": "DT_BOOL"}}}, {"name": "module_apply_default/Encoder_en/KonaTransformer/Encode/StoreMask/Shape", "op": "Shape", "input": ["module_apply_default/Encoder_en/KonaTransformer/Encode/Greater"], "attr": {"T": {"type": "DT_BOOL"}, "out_type": {"type": "DT_INT32"}}}, {"name": "module_apply_default/Encoder_en/KonaTransformer/Encode/TransformerStack/Layer_0/AddTimingSignal/StoreMask/Where", "op": "Where", "input": ["module_apply_default/Encoder_en/KonaTransformer/Encode/Greater"], "attr": {"T": {"type": "DT_BOOL"}}}, {"name": "module_apply_default/Encoder_en/KonaTransformer/Encode/TransformerStack/Layer_0/AddTimingSignal/Where", "op": "Where", "input": ["module_apply_default/Encoder_en/KonaTransformer/Encode/Greater"], "attr": {"T": {"type": "DT_BOOL"}}}, {"name": "module_apply_default/Encoder_en/KonaTransformer/Encode/TransformerStack/Layer_0/TransformerLayer/AdjustResidualInput/StoreMask/Where", "op": "Where", "input": ["module_apply_default/Encoder_en/KonaTransformer/Encode/Greater"], "attr": {"T": {"type": "DT_BOOL"}}}, {"name": "module_apply_default/Encoder_en/KonaTransformer/Encode/TransformerStack/MaskLength/ToInt32", "op": "Cast", "input": ["module_apply_default/Encoder_en/KonaTransformer/Encode/Greater"], "attr": {"SrcT": {"type": "DT_BOOL"}, "Truncate": {"b": false}, "DstT": {"type": "DT_INT32"}}}, {"name": "module_apply_default/Encoder_en/KonaTransformer/Encode/TransformerStack/Layer_1/TransformerLayer/FFN/StoreMask/ToInt32", "op": "Cast", "input": ["module_apply_default/Encoder_en/KonaTransformer/Encode/TransformerStack/Layer_1/TransformerLayer/FFN/StoreMask/Where"], "attr": {"SrcT": {"type": "DT_INT64"}, "Truncate": {"b": false}, "DstT": {"type": "DT_INT32"}}}, {"name": "module_apply_default/Encoder_en/KonaTransformer/Encode/TransformerStack/Layer_1/TransformerLayer/MultiheadAttention/DotProductAttention/ToFloat", "op": "Cast", "input": ["module_apply_default/Encoder_en/KonaTransformer/Encode/TransformerStack/Layer_1/TransformerLayer/MultiheadAttention/DotProductAttention/LogicalNot"], "attr": {"Truncate": {"b": false}, "DstT": {"type": "DT_FLOAT"}, "SrcT": {"type": "DT_BOOL"}}}, {"name": "module_apply_default/Encoder_en/KonaTransformer/Encode/TransformerStack/Layer_0/TransformerLayer/FFN/StoreMask/ToInt32", "op": "Cast", "input": ["module_apply_default/Encoder_en/KonaTransformer/Encode/TransformerStack/Layer_0/TransformerLayer/FFN/StoreMask/Where"], "attr": {"Truncate": {"b": false}, "DstT": {"type": "DT_INT32"}, "SrcT": {"type": "DT_INT64"}}}, {"name": "module_apply_default/Encoder_en/KonaTransformer/Encode/TransformerStack/Layer_0/TransformerLayer/MultiheadAttention/DotProductAttention/ToFloat", "op": "Cast", "input": ["module_apply_default/Encoder_en/KonaTransformer/Encode/TransformerStack/Layer_0/TransformerLayer/MultiheadAttention/DotProductAttention/LogicalNot"], "attr": {"DstT": {"type": "DT_FLOAT"}, "SrcT": {"type": "DT_BOOL"}, "Truncate": {"b": false}}}, {"name": "module_apply_default/Encoder_en/KonaTransformer/Encode/StoreMask/ToInt32", "op": "Cast", "input": ["module_apply_default/Encoder_en/KonaTransformer/Encode/StoreMask/Where"], "attr": {"DstT": {"type": "DT_INT32"}, "SrcT": {"type": "DT_INT64"}, "Truncate": {"b": false}}}, {"name": "module_apply_default/Encoder_en/KonaTransformer/Encode/Scatter/concat", "op": "ConcatV2", "input": ["module_apply_default/Encoder_en/KonaTransformer/Encode/StoreMask/Shape", "module_apply_default/Encoder_en/KonaTransformer/Encode/Scatter/strided_slice", "module_apply_default/Encoder_en/KonaTransformer/Encode/Scatter/concat/axis"], "attr": {"T": {"type": "DT_INT32"}, "N": {"i": "2"}, "Tidx": {"type": "DT_INT32"}}}, {"name": "module_apply_default/Encoder_en/KonaTransformer/Encode/TransformerStack/Layer_0/AddTimingSignal/StoreMask/ToInt32", "op": "Cast", "input": ["module_apply_default/Encoder_en/KonaTransformer/Encode/TransformerStack/Layer_0/AddTimingSignal/StoreMask/Where"], "attr": {"SrcT": {"type": "DT_INT64"}, "Truncate": {"b": false}, "DstT": {"type": "DT_INT32"}}}, {"name": "module_apply_default/Encoder_en/KonaTransformer/Encode/TransformerStack/Layer_0/AddTimingSignal/strided_slice_2", "op": "StridedSlice", "input": ["module_apply_default/Encoder_en/KonaTransformer/Encode/TransformerStack/Layer_0/AddTimingSignal/Where", "module_apply_default/Encoder_en/KonaTransformer/Encode/TransformerStack/Layer_0/AddTimingSignal/strided_slice_2/stack", "module_apply_default/Encoder_en/KonaTransformer/Encode/TransformerStack/Layer_0/AddTimingSignal/strided_slice_2/stack_1", "module_apply_default/Encoder_en/KonaTransformer/Encode/TransformerStack/Layer_0/AddTimingSignal/strided_slice_2/stack_2"], "attr": {"shrink_axis_mask": {"i": "2"}, "ellipsis_mask": {"i": "0"}, "begin_mask": {"i": "1"}, "new_axis_mask": {"i": "0"}, "end_mask": {"i": "1"}, "T": {"type": "DT_INT64"}, "Index": {"type": "DT_INT32"}}}, {"name": "module_apply_default/Encoder_en/KonaTransformer/Encode/TransformerStack/Layer_0/TransformerLayer/AdjustResidualInput/StoreMask/ToInt32", "op": "Cast", "input": ["module_apply_default/Encoder_en/KonaTransformer/Encode/TransformerStack/Layer_0/TransformerLayer/AdjustResidualInput/StoreMask/Where"], "attr": {"SrcT": {"type": "DT_INT64"}, "Truncate": {"b": false}, "DstT": {"type": "DT_INT32"}}}, {"name": "module_apply_default/Encoder_en/KonaTransformer/Encode/TransformerStack/MaskLength/Sum", "op": "Sum", "input": ["module_apply_default/Encoder_en/KonaTransformer/Encode/TransformerStack/MaskLength/ToInt32", "module_apply_default/Encoder_en/KonaTransformer/Encode/TransformerStack/MaskLength/Sum/reduction_indices"], "attr": {"keep_dims": {"b": false}, "Tidx": {"type": "DT_INT32"}, "T": {"type": "DT_INT32"}}}, {"name": "module_apply_default/Encoder_en/KonaTransformer/Encode/TransformerStack/Layer_1/TransformerLayer/MultiheadAttention/DotProductAttention/attention_bias_ignore_padding/mul", "op": "Mul", "input": ["module_apply_default/Encoder_en/KonaTransformer/Encode/TransformerStack/Layer_1/TransformerLayer/MultiheadAttention/DotProductAttention/ToFloat", "module_apply_default/Encoder_en/KonaTransformer/Encode/TransformerStack/Layer_1/TransformerLayer/MultiheadAttention/DotProductAttention/attention_bias_ignore_padding/mul/y"], "attr": {"T": {"type": "DT_FLOAT"}}}, {"name": "module_apply_default/Encoder_en/KonaTransformer/Encode/TransformerStack/Layer_0/TransformerLayer/MultiheadAttention/DotProductAttention/attention_bias_ignore_padding/mul", "op": "Mul", "input": ["module_apply_default/Encoder_en/KonaTransformer/Encode/TransformerStack/Layer_0/TransformerLayer/MultiheadAttention/DotProductAttention/ToFloat", "module_apply_default/Encoder_en/KonaTransformer/Encode/TransformerStack/Layer_0/TransformerLayer/MultiheadAttention/DotProductAttention/attention_bias_ignore_padding/mul/y"], "attr": {"T": {"type": "DT_FLOAT"}}}, {"name": "module_apply_default/Encoder_en/KonaTransformer/Encode/Scatter/ScatterNd", "op": "ScatterNd", "input": ["module_apply_default/Encoder_en/KonaTransformer/Encode/StoreMask/ToInt32", "module_apply_default/Encoder_en/KonaTransformer/Encode/embedding_lookup", "module_apply_default/Encoder_en/KonaTransformer/Encode/Scatter/concat"], "attr": {"Tindices": {"type": "DT_INT32"}, "T": {"type": "DT_FLOAT"}}}, {"name": "module_apply_default/Encoder_en/KonaTransformer/Encode/TransformerStack/Layer_0/AddTimingSignal/TimingSignal/ToFloat_2", "op": "Cast", "input": ["module_apply_default/Encoder_en/KonaTransformer/Encode/TransformerStack/Layer_0/AddTimingSignal/strided_slice_2"], "attr": {"SrcT": {"type": "DT_INT64"}, "Truncate": {"b": false}, "DstT": {"type": "DT_FLOAT"}}}, {"name": "module_apply_default/Encoder_en/KonaTransformer/SequenceMask/ExpandDims", "op": "ExpandDims", "input": ["module_apply_default/Encoder_en/KonaTransformer/Encode/TransformerStack/MaskLength/Sum", "module_apply_default/Encoder_en/KonaTransformer/SequenceMask/ExpandDims/dim"], "attr": {"T": {"type": "DT_INT32"}, "Tdim": {"type": "DT_INT32"}}}, {"name": "module_apply_default/Encoder_en/KonaTransformer/Maximum", "op": "Maximum", "input": ["module_apply_default/Encoder_en/KonaTransformer/Encode/TransformerStack/MaskLength/Sum", "module_apply_default/Encoder_en/KonaTransformer/Maximum/y"], "attr": {"T": {"type": "DT_INT32"}}}, {"name": "module_apply_default/Encoder_en/KonaTransformer/Encode/TransformerStack/Layer_1/TransformerLayer/MultiheadAttention/DotProductAttention/attention_bias_ignore_padding/ExpandDims", "op": "ExpandDims", "input": ["module_apply_default/Encoder_en/KonaTransformer/Encode/TransformerStack/Layer_1/TransformerLayer/MultiheadAttention/DotProductAttention/attention_bias_ignore_padding/mul", "module_apply_default/Encoder_en/KonaTransformer/Encode/TransformerStack/Layer_1/TransformerLayer/MultiheadAttention/DotProductAttention/attention_bias_ignore_padding/ExpandDims/dim"], "attr": {"T": {"type": "DT_FLOAT"}, "Tdim": {"type": "DT_INT32"}}}, {"name": "module_apply_default/Encoder_en/KonaTransformer/Encode/TransformerStack/Layer_0/TransformerLayer/MultiheadAttention/DotProductAttention/attention_bias_ignore_padding/ExpandDims", "op": "ExpandDims", "input": ["module_apply_default/Encoder_en/KonaTransformer/Encode/TransformerStack/Layer_0/TransformerLayer/MultiheadAttention/DotProductAttention/attention_bias_ignore_padding/mul", "module_apply_default/Encoder_en/KonaTransformer/Encode/TransformerStack/Layer_0/TransformerLayer/MultiheadAttention/DotProductAttention/attention_bias_ignore_padding/ExpandDims/dim"], "attr": {"T": {"type": "DT_FLOAT"}, "Tdim": {"type": "DT_INT32"}}}, {"name": "module_apply_default/Encoder_en/KonaTransformer/Encode/TransformerStack/Layer_0/AddTimingSignal/Gather/GatherNd", "op": "GatherNd", "input": ["module_apply_default/Encoder_en/KonaTransformer/Encode/Scatter/ScatterNd", "module_apply_default/Encoder_en/KonaTransformer/Encode/TransformerStack/Layer_0/AddTimingSignal/StoreMask/ToInt32"], "attr": {"Tindices": {"type": "DT_INT32"}, "Tparams": {"type": "DT_FLOAT"}}}, {"name": "module_apply_default/Encoder_en/KonaTransformer/Encode/TransformerStack/Layer_0/AddTimingSignal/TimingSignal/ExpandDims", "op": "ExpandDims", "input": ["module_apply_default/Encoder_en/KonaTransformer/Encode/TransformerStack/Layer_0/AddTimingSignal/TimingSignal/ToFloat_2", "module_apply_default/Encoder_en/KonaTransformer/Encode/TransformerStack/Layer_0/AddTimingSignal/TimingSignal/ExpandDims/dim"], "attr": {"Tdim": {"type": "DT_INT32"}, "T": {"type": "DT_FLOAT"}}}, {"name": "module_apply_default/Encoder_en/KonaTransformer/ToFloat_1", "op": "Cast", "input": ["module_apply_default/Encoder_en/KonaTransformer/Maximum"], "attr": {"SrcT": {"type": "DT_INT32"}, "Truncate": {"b": false}, "DstT": {"type": "DT_FLOAT"}}}, {"name": "module_apply_default/Encoder_en/KonaTransformer/Encode/TransformerStack/Layer_1/TransformerLayer/MultiheadAttention/DotProductAttention/attention_bias_ignore_padding/ExpandDims_1", "op": "ExpandDims", "input": ["module_apply_default/Encoder_en/KonaTransformer/Encode/TransformerStack/Layer_1/TransformerLayer/MultiheadAttention/DotProductAttention/attention_bias_ignore_padding/ExpandDims", "module_apply_default/Encoder_en/KonaTransformer/Encode/TransformerStack/Layer_1/TransformerLayer/MultiheadAttention/DotProductAttention/attention_bias_ignore_padding/ExpandDims_1/dim"], "attr": {"Tdim": {"type": "DT_INT32"}, "T": {"type": "DT_FLOAT"}}}, {"name": "module_apply_default/Encoder_en/KonaTransformer/Encode/TransformerStack/Layer_0/TransformerLayer/MultiheadAttention/DotProductAttention/attention_bias_ignore_padding/ExpandDims_1", "op": "ExpandDims", "input": ["module_apply_default/Encoder_en/KonaTransformer/Encode/TransformerStack/Layer_0/TransformerLayer/MultiheadAttention/DotProductAttention/attention_bias_ignore_padding/ExpandDims", "module_apply_default/Encoder_en/KonaTransformer/Encode/TransformerStack/Layer_0/TransformerLayer/MultiheadAttention/DotProductAttention/attention_bias_ignore_padding/ExpandDims_1/dim"], "attr": {"Tdim": {"type": "DT_INT32"}, "T": {"type": "DT_FLOAT"}}}, {"name": "module_apply_default/Encoder_en/KonaTransformer/Encode/TransformerStack/Layer_0/AddTimingSignal/TimingSignal/mul_2", "op": "Mul", "input": ["module_apply_default/Encoder_en/KonaTransformer/Encode/TransformerStack/Layer_0/AddTimingSignal/TimingSignal/ExpandDims", "module_apply_default/Encoder_en/KonaTransformer/Encode/TransformerStack/Layer_0/AddTimingSignal/TimingSignal/ExpandDims_1"], "attr": {"T": {"type": "DT_FLOAT"}}}, {"name": "module_apply_default/Encoder_en/KonaTransformer/ExpandDims_1", "op": "ExpandDims", "input": ["module_apply_default/Encoder_en/KonaTransformer/ToFloat_1", "module_apply_default/Encoder_en/KonaTransformer/ExpandDims_1/dim"], "attr": {"Tdim": {"type": "DT_INT32"}, "T": {"type": "DT_FLOAT"}}}, {"name": "module_apply_default/Encoder_en/KonaTransformer/Encode/TransformerStack/Layer_0/AddTimingSignal/TimingSignal/Sin", "op": "Sin", "input": ["module_apply_default/Encoder_en/KonaTransformer/Encode/TransformerStack/Layer_0/AddTimingSignal/TimingSignal/mul_2"], "attr": {"T": {"type": "DT_FLOAT"}}}, {"name": "module_apply_default/Encoder_en/KonaTransformer/Encode/TransformerStack/Layer_0/AddTimingSignal/TimingSignal/Cos", "op": "Cos", "input": ["module_apply_default/Encoder_en/KonaTransformer/Encode/TransformerStack/Layer_0/AddTimingSignal/TimingSignal/mul_2"], "attr": {"T": {"type": "DT_FLOAT"}}}, {"name": "module_apply_default/Encoder_en/KonaTransformer/Encode/TransformerStack/Layer_0/AddTimingSignal/TimingSignal/concat", "op": "ConcatV2", "input": ["module_apply_default/Encoder_en/KonaTransformer/Encode/TransformerStack/Layer_0/AddTimingSignal/TimingSignal/Sin", "module_apply_default/Encoder_en/KonaTransformer/Encode/TransformerStack/Layer_0/AddTimingSignal/TimingSignal/Cos", "module_apply_default/Encoder_en/KonaTransformer/Encode/TransformerStack/Layer_0/AddTimingSignal/TimingSignal/concat/axis"], "attr": {"N": {"i": "2"}, "Tidx": {"type": "DT_INT32"}, "T": {"type": "DT_FLOAT"}}}, {"name": "module_apply_default/Encoder_en/KonaTransformer/Encode/TransformerStack/Layer_0/AddTimingSignal/add", "op": "Add", "input": ["module_apply_default/Encoder_en/KonaTransformer/Encode/TransformerStack/Layer_0/AddTimingSignal/Gather/GatherNd", "module_apply_default/Encoder_en/KonaTransformer/Encode/TransformerStack/Layer_0/AddTimingSignal/TimingSignal/concat"], "attr": {"T": {"type": "DT_FLOAT"}}}, {"name": "module_apply_default/Encoder_en/KonaTransformer/Encode/TransformerStack/Layer_0/AddTimingSignal/Scatter/Shape", "op": "Shape", "input": ["module_apply_default/Encoder_en/KonaTransformer/Encode/TransformerStack/Layer_0/AddTimingSignal/add"], "attr": {"T": {"type": "DT_FLOAT"}, "out_type": {"type": "DT_INT32"}}}, {"name": "module_apply_default/Encoder_en/KonaTransformer/Encode/TransformerStack/Layer_0/AddTimingSignal/Scatter/strided_slice", "op": "StridedSlice", "input": ["module_apply_default/Encoder_en/KonaTransformer/Encode/TransformerStack/Layer_0/AddTimingSignal/Scatter/Shape", "module_apply_default/Encoder_en/KonaTransformer/Encode/TransformerStack/Layer_0/AddTimingSignal/Scatter/strided_slice/stack", "module_apply_default/Encoder_en/KonaTransformer/Encode/TransformerStack/Layer_0/AddTimingSignal/Scatter/strided_slice/stack_1", "module_apply_default/Encoder_en/KonaTransformer/Encode/TransformerStack/Layer_0/AddTimingSignal/Scatter/strided_slice/stack_2"], "attr": {"shrink_axis_mask": {"i": "0"}, "ellipsis_mask": {"i": "0"}, "begin_mask": {"i": "0"}, "new_axis_mask": {"i": "0"}, "end_mask": {"i": "1"}, "T": {"type": "DT_INT32"}, "Index": {"type": "DT_INT32"}}}, {"name": "module_apply_default/Encoder_en/KonaTransformer/Encode/TransformerStack/Layer_0/AddTimingSignal/Scatter/concat", "op": "ConcatV2", "input": ["module_apply_default/Encoder_en/KonaTransformer/Encode/TransformerStack/Layer_0/AddTimingSignal/StoreMask/Shape", "module_apply_default/Encoder_en/KonaTransformer/Encode/TransformerStack/Layer_0/AddTimingSignal/Scatter/strided_slice", "module_apply_default/Encoder_en/KonaTransformer/Encode/TransformerStack/Layer_0/AddTimingSignal/Scatter/concat/axis"], "attr": {"Tidx": {"type": "DT_INT32"}, "T": {"type": "DT_INT32"}, "N": {"i": "2"}}}, {"name": "module_apply_default/Encoder_en/KonaTransformer/Encode/TransformerStack/Layer_0/AddTimingSignal/Scatter/ScatterNd", "op": "ScatterNd", "input": ["module_apply_default/Encoder_en/KonaTransformer/Encode/TransformerStack/Layer_0/AddTimingSignal/StoreMask/ToInt32", "module_apply_default/Encoder_en/KonaTransformer/Encode/TransformerStack/Layer_0/AddTimingSignal/add", "module_apply_default/Encoder_en/KonaTransformer/Encode/TransformerStack/Layer_0/AddTimingSignal/Scatter/concat"], "attr": {"Tindices": {"type": "DT_INT32"}, "T": {"type": "DT_FLOAT"}}}, {"name": "module_apply_default/Encoder_en/KonaTransformer/Encode/TransformerStack/Layer_0/add", "op": "Add", "input": ["module_apply_default/Encoder_en/KonaTransformer/Encode/Scatter/ScatterNd", "module_apply_default/Encoder_en/KonaTransformer/Encode/TransformerStack/Layer_0/AddTimingSignal/Scatter/ScatterNd"], "attr": {"T": {"type": "DT_FLOAT"}}}, {"name": "module_apply_default/Encoder_en/KonaTransformer/Encode/TransformerStack/Layer_0/TransformerLayer/layer_prepostprocess/layer_norm/Mean", "op": "Mean", "input": ["module_apply_default/Encoder_en/KonaTransformer/Encode/TransformerStack/Layer_0/add", "module_apply_default/Encoder_en/KonaTransformer/Encode/TransformerStack/Layer_0/TransformerLayer/layer_prepostprocess/layer_norm/Mean/reduction_indices"], "attr": {"keep_dims": {"b": true}, "Tidx": {"type": "DT_INT32"}, "T": {"type": "DT_FLOAT"}}}, {"name": "module_apply_default/Encoder_en/KonaTransformer/Encode/TransformerStack/Layer_0/TransformerLayer/AdjustResidualInput/Gather/GatherNd", "op": "GatherNd", "input": ["module_apply_default/Encoder_en/KonaTransformer/Encode/TransformerStack/Layer_0/add", "module_apply_default/Encoder_en/KonaTransformer/Encode/TransformerStack/Layer_0/TransformerLayer/AdjustResidualInput/StoreMask/ToInt32"], "attr": {"Tindices": {"type": "DT_INT32"}, "Tparams": {"type": "DT_FLOAT"}}}, {"name": "module_apply_default/Encoder_en/KonaTransformer/Encode/TransformerStack/Layer_0/TransformerLayer/layer_prepostprocess/layer_norm/sub_1", "op": "Sub", "input": ["module_apply_default/Encoder_en/KonaTransformer/Encode/TransformerStack/Layer_0/add", "module_apply_default/Encoder_en/KonaTransformer/Encode/TransformerStack/Layer_0/TransformerLayer/layer_prepostprocess/layer_norm/Mean"], "attr": {"T": {"type": "DT_FLOAT"}}}, {"name": "module_apply_default/Encoder_en/KonaTransformer/Encode/TransformerStack/Layer_0/TransformerLayer/layer_prepostprocess/layer_norm/sub", "op": "SquaredDifference", "input": ["module_apply_default/Encoder_en/KonaTransformer/Encode/TransformerStack/Layer_0/add", "module_apply_default/Encoder_en/KonaTransformer/Encode/TransformerStack/Layer_0/TransformerLayer/layer_prepostprocess/layer_norm/Mean"], "attr": {"T": {"type": "DT_FLOAT"}}}, {"name": "module_apply_default/Encoder_en/KonaTransformer/Encode/TransformerStack/Layer_0/TransformerLayer/AdjustResidualInput/dense/BiasAdd", "op": "_FusedMatMul", "input": ["module_apply_default/Encoder_en/KonaTransformer/Encode/TransformerStack/Layer_0/TransformerLayer/AdjustResidualInput/Gather/GatherNd", "module_apply_default/Encoder_en/KonaTransformer/Encode/Layer_0/TransformerLayer/dense/kernel/ConcatPartitions/concat", "module_apply_default/Encoder_en/KonaTransformer/Encode/Layer_0/TransformerLayer/dense/bias/ConcatPartitions/concat"], "device": "/device:CPU:0", "attr": {"transpose_a": {"b": false}, "transpose_b": {"b": false}, "T": {"type": "DT_FLOAT"}, "num_args": {"i": "1"}, "epsilon": {"f": 0.0}, "fused_ops": {"list": {"s": ["Qmlhc0FkZA=="]}}}}, {"name": "module_apply_default/Encoder_en/KonaTransformer/Encode/TransformerStack/Layer_0/TransformerLayer/layer_prepostprocess/layer_norm/Mean_1", "op": "Mean", "input": ["module_apply_default/Encoder_en/KonaTransformer/Encode/TransformerStack/Layer_0/TransformerLayer/layer_prepostprocess/layer_norm/sub", "module_apply_default/Encoder_en/KonaTransformer/Encode/TransformerStack/Layer_0/TransformerLayer/layer_prepostprocess/layer_norm/Mean_1/reduction_indices"], "attr": {"keep_dims": {"b": true}, "Tidx": {"type": "DT_INT32"}, "T": {"type": "DT_FLOAT"}}}, {"name": "module_apply_default/Encoder_en/KonaTransformer/Encode/TransformerStack/Layer_0/TransformerLayer/AdjustResidualInput/Scatter/Shape", "op": "Shape", "input": ["module_apply_default/Encoder_en/KonaTransformer/Encode/TransformerStack/Layer_0/TransformerLayer/AdjustResidualInput/dense/BiasAdd"], "attr": {"T": {"type": "DT_FLOAT"}, "out_type": {"type": "DT_INT32"}}}, {"name": "module_apply_default/Encoder_en/KonaTransformer/Encode/TransformerStack/Layer_0/TransformerLayer/layer_prepostprocess/layer_norm/add", "op": "Add", "input": ["module_apply_default/Encoder_en/KonaTransformer/Encode/TransformerStack/Layer_0/TransformerLayer/layer_prepostprocess/layer_norm/Mean_1", "module_apply_default/Encoder_en/KonaTransformer/Encode/TransformerStack/Layer_0/TransformerLayer/layer_prepostprocess/layer_norm/Cast/x"], "attr": {"T": {"type": "DT_FLOAT"}}}, {"name": "module_apply_default/Encoder_en/KonaTransformer/Encode/TransformerStack/Layer_0/TransformerLayer/AdjustResidualInput/Scatter/strided_slice", "op": "StridedSlice", "input": ["module_apply_default/Encoder_en/KonaTransformer/Encode/TransformerStack/Layer_0/TransformerLayer/AdjustResidualInput/Scatter/Shape", "module_apply_default/Encoder_en/KonaTransformer/Encode/TransformerStack/Layer_0/TransformerLayer/AdjustResidualInput/Scatter/strided_slice/stack", "module_apply_default/Encoder_en/KonaTransformer/Encode/TransformerStack/Layer_0/TransformerLayer/AdjustResidualInput/Scatter/strided_slice/stack_1", "module_apply_default/Encoder_en/KonaTransformer/Encode/TransformerStack/Layer_0/TransformerLayer/AdjustResidualInput/Scatter/strided_slice/stack_2"], "attr": {"Index": {"type": "DT_INT32"}, "T": {"type": "DT_INT32"}, "shrink_axis_mask": {"i": "0"}, "begin_mask": {"i": "0"}, "ellipsis_mask": {"i": "0"}, "new_axis_mask": {"i": "0"}, "end_mask": {"i": "1"}}}, {"name": "module_apply_default/Encoder_en/KonaTransformer/Encode/TransformerStack/Layer_0/TransformerLayer/layer_prepostprocess/layer_norm/Rsqrt", "op": "Rsqrt", "input": ["module_apply_default/Encoder_en/KonaTransformer/Encode/TransformerStack/Layer_0/TransformerLayer/layer_prepostprocess/layer_norm/add"], "attr": {"T": {"type": "DT_FLOAT"}}}, {"name": "module_apply_default/Encoder_en/KonaTransformer/Encode/TransformerStack/Layer_0/TransformerLayer/AdjustResidualInput/Scatter/concat", "op": "ConcatV2", "input": ["module_apply_default/Encoder_en/KonaTransformer/Encode/TransformerStack/Layer_0/TransformerLayer/AdjustResidualInput/StoreMask/Shape", "module_apply_default/Encoder_en/KonaTransformer/Encode/TransformerStack/Layer_0/TransformerLayer/AdjustResidualInput/Scatter/strided_slice", "module_apply_default/Encoder_en/KonaTransformer/Encode/TransformerStack/Layer_0/TransformerLayer/AdjustResidualInput/Scatter/concat/axis"], "attr": {"N": {"i": "2"}, "Tidx": {"type": "DT_INT32"}, "T": {"type": "DT_INT32"}}}, {"name": "module_apply_default/Encoder_en/KonaTransformer/Encode/TransformerStack/Layer_0/TransformerLayer/layer_prepostprocess/layer_norm/mul", "op": "Mul", "input": ["module_apply_default/Encoder_en/KonaTransformer/Encode/Layer_0/TransformerLayer/layer_prepostprocess/layer_norm/layer_norm_scale/ConcatPartitions/concat", "module_apply_default/Encoder_en/KonaTransformer/Encode/TransformerStack/Layer_0/TransformerLayer/layer_prepostprocess/layer_norm/Rsqrt"], "attr": {"T": {"type": "DT_FLOAT"}}}, {"name": "module_apply_default/Encoder_en/KonaTransformer/Encode/TransformerStack/Layer_0/TransformerLayer/AdjustResidualInput/Scatter/ScatterNd", "op": "ScatterNd", "input": ["module_apply_default/Encoder_en/KonaTransformer/Encode/TransformerStack/Layer_0/TransformerLayer/AdjustResidualInput/StoreMask/ToInt32", "module_apply_default/Encoder_en/KonaTransformer/Encode/TransformerStack/Layer_0/TransformerLayer/AdjustResidualInput/dense/BiasAdd", "module_apply_default/Encoder_en/KonaTransformer/Encode/TransformerStack/Layer_0/TransformerLayer/AdjustResidualInput/Scatter/concat"], "attr": {"Tindices": {"type": "DT_INT32"}, "T": {"type": "DT_FLOAT"}}}, {"name": "module_apply_default/Encoder_en/KonaTransformer/Encode/TransformerStack/Layer_0/TransformerLayer/layer_prepostprocess/layer_norm/mul_1", "op": "Mul", "input": ["module_apply_default/Encoder_en/KonaTransformer/Encode/TransformerStack/Layer_0/TransformerLayer/layer_prepostprocess/layer_norm/sub_1", "module_apply_default/Encoder_en/KonaTransformer/Encode/TransformerStack/Layer_0/TransformerLayer/layer_prepostprocess/layer_norm/mul"], "attr": {"T": {"type": "DT_FLOAT"}}}, {"name": "module_apply_default/Encoder_en/KonaTransformer/Encode/TransformerStack/Layer_0/TransformerLayer/layer_prepostprocess/layer_norm/add_1", "op": "Add", "input": ["module_apply_default/Encoder_en/KonaTransformer/Encode/TransformerStack/Layer_0/TransformerLayer/layer_prepostprocess/layer_norm/mul_1", "module_apply_default/Encoder_en/KonaTransformer/Encode/Layer_0/TransformerLayer/layer_prepostprocess/layer_norm/layer_norm_bias/ConcatPartitions/concat"], "attr": {"T": {"type": "DT_FLOAT"}}}, {"name": "module_apply_default/Encoder_en/KonaTransformer/Encode/TransformerStack/Layer_0/TransformerLayer/MultiheadAttention/ExpandDims", "op": "ExpandDims", "input": ["module_apply_default/Encoder_en/KonaTransformer/Encode/TransformerStack/Layer_0/TransformerLayer/layer_prepostprocess/layer_norm/add_1", "module_apply_default/Encoder_en/KonaTransformer/Encode/TransformerStack/Layer_0/TransformerLayer/MultiheadAttention/ExpandDims/dim"], "attr": {"Tdim": {"type": "DT_INT32"}, "T": {"type": "DT_FLOAT"}}}, {"name": "module_apply_default/Encoder_en/KonaTransformer/Encode/TransformerStack/Layer_0/TransformerLayer/MultiheadAttention/qkv_transform_single/BiasAdd", "op": "_FusedConv2D", "input": ["module_apply_default/Encoder_en/KonaTransformer/Encode/TransformerStack/Layer_0/TransformerLayer/MultiheadAttention/ExpandDims", "module/Encoder_en/KonaTransformer/Encode/Layer_0/TransformerLayer/MultiheadAttention/qkv_transform_single/kernel/part_0", "module_apply_default/Encoder_en/KonaTransformer/Encode/Layer_0/TransformerLayer/MultiheadAttention/qkv_transform_single/bias/ConcatPartitions/concat"], "device": "/device:CPU:0", "attr": {"dilations": {"list": {"i": ["1", "1", "1", "1"]}}, "T": {"type": "DT_FLOAT"}, "data_format": {"s": "TkhXQw=="}, "strides": {"list": {"i": ["1", "1", "1", "1"]}}, "explicit_paddings": {"list": {}}, "use_cudnn_on_gpu": {"b": true}, "num_args": {"i": "1"}, "epsilon": {"f": 0.0}, "padding": {"s": "VkFMSUQ="}, "fused_ops": {"list": {"s": ["Qmlhc0FkZA=="]}}}}, {"name": "module_apply_default/Encoder_en/KonaTransformer/Encode/TransformerStack/Layer_0/TransformerLayer/MultiheadAttention/Squeeze", "op": "Squeeze", "input": ["module_apply_default/Encoder_en/KonaTransformer/Encode/TransformerStack/Layer_0/TransformerLayer/MultiheadAttention/qkv_transform_single/BiasAdd"], "attr": {"squeeze_dims": {"list": {"i": ["2"]}}, "T": {"type": "DT_FLOAT"}}}, {"name": "module_apply_default/Encoder_en/KonaTransformer/Encode/TransformerStack/Layer_0/TransformerLayer/MultiheadAttention/split", "op": "SplitV", "input": ["module_apply_default/Encoder_en/KonaTransformer/Encode/TransformerStack/Layer_0/TransformerLayer/MultiheadAttention/Squeeze", "module_apply_default/Encoder_en/KonaTransformer/Encode/TransformerStack/Layer_0/TransformerLayer/MultiheadAttention/Const", "module_apply_default/Encoder_en/KonaTransformer/Encode/TransformerStack/Layer_0/TransformerLayer/MultiheadAttention/split/split_dim"], "attr": {"num_split": {"i": "3"}, "Tlen": {"type": "DT_INT32"}, "T": {"type": "DT_FLOAT"}}}, {"name": "module_apply_default/Encoder_en/KonaTransformer/Encode/TransformerStack/Layer_0/TransformerLayer/MultiheadAttention/split_heads/split_last_dimension/Shape", "op": "Shape", "input": ["module_apply_default/Encoder_en/KonaTransformer/Encode/TransformerStack/Layer_0/TransformerLayer/MultiheadAttention/split"], "attr": {"T": {"type": "DT_FLOAT"}, "out_type": {"type": "DT_INT32"}}}, {"name": "module_apply_default/Encoder_en/KonaTransformer/Encode/TransformerStack/Layer_0/TransformerLayer/MultiheadAttention/split_heads_1/split_last_dimension/Shape", "op": "Shape", "input": ["module_apply_default/Encoder_en/KonaTransformer/Encode/TransformerStack/Layer_0/TransformerLayer/MultiheadAttention/split:1"], "attr": {"T": {"type": "DT_FLOAT"}, "out_type": {"type": "DT_INT32"}}}, {"name": "module_apply_default/Encoder_en/KonaTransformer/Encode/TransformerStack/Layer_0/TransformerLayer/MultiheadAttention/split_heads_2/split_last_dimension/Shape", "op": "Shape", "input": ["module_apply_default/Encoder_en/KonaTransformer/Encode/TransformerStack/Layer_0/TransformerLayer/MultiheadAttention/split:2"], "attr": {"T": {"type": "DT_FLOAT"}, "out_type": {"type": "DT_INT32"}}}, {"name": "module_apply_default/Encoder_en/KonaTransformer/Encode/TransformerStack/Layer_0/TransformerLayer/MultiheadAttention/split_heads/split_last_dimension/strided_slice", "op": "StridedSlice", "input": ["module_apply_default/Encoder_en/KonaTransformer/Encode/TransformerStack/Layer_0/TransformerLayer/MultiheadAttention/split_heads/split_last_dimension/Shape", "module_apply_default/Encoder_en/KonaTransformer/Encode/TransformerStack/Layer_0/TransformerLayer/MultiheadAttention/split_heads/split_last_dimension/strided_slice/stack", "module_apply_default/Encoder_en/KonaTransformer/Encode/TransformerStack/Layer_0/TransformerLayer/MultiheadAttention/split_heads/split_last_dimension/strided_slice/stack_1", "module_apply_default/Encoder_en/KonaTransformer/Encode/TransformerStack/Layer_0/TransformerLayer/MultiheadAttention/split_heads/split_last_dimension/strided_slice/stack_2"], "attr": {"Index": {"type": "DT_INT32"}, "T": {"type": "DT_INT32"}, "shrink_axis_mask": {"i": "1"}, "ellipsis_mask": {"i": "0"}, "begin_mask": {"i": "0"}, "new_axis_mask": {"i": "0"}, "end_mask": {"i": "0"}}}, {"name": "module_apply_default/Encoder_en/KonaTransformer/Encode/TransformerStack/Layer_0/TransformerLayer/MultiheadAttention/split_heads/split_last_dimension/strided_slice_1", "op": "StridedSlice", "input": ["module_apply_default/Encoder_en/KonaTransformer/Encode/TransformerStack/Layer_0/TransformerLayer/MultiheadAttention/split_heads/split_last_dimension/Shape", "module_apply_default/Encoder_en/KonaTransformer/Encode/TransformerStack/Layer_0/TransformerLayer/MultiheadAttention/split_heads/split_last_dimension/strided_slice_1/stack", "module_apply_default/Encoder_en/KonaTransformer/Encode/TransformerStack/Layer_0/TransformerLayer/MultiheadAttention/split_heads/split_last_dimension/strided_slice_1/stack_1", "module_apply_default/Encoder_en/KonaTransformer/Encode/TransformerStack/Layer_0/TransformerLayer/MultiheadAttention/split_heads/split_last_dimension/strided_slice_1/stack_2"], "attr": {"ellipsis_mask": {"i": "0"}, "begin_mask": {"i": "0"}, "new_axis_mask": {"i": "0"}, "end_mask": {"i": "0"}, "T": {"type": "DT_INT32"}, "Index": {"type": "DT_INT32"}, "shrink_axis_mask": {"i": "1"}}}, {"name": "module_apply_default/Encoder_en/KonaTransformer/Encode/TransformerStack/Layer_0/TransformerLayer/MultiheadAttention/split_heads_1/split_last_dimension/strided_slice", "op": "StridedSlice", "input": ["module_apply_default/Encoder_en/KonaTransformer/Encode/TransformerStack/Layer_0/TransformerLayer/MultiheadAttention/split_heads_1/split_last_dimension/Shape", "module_apply_default/Encoder_en/KonaTransformer/Encode/TransformerStack/Layer_0/TransformerLayer/MultiheadAttention/split_heads_1/split_last_dimension/strided_slice/stack", "module_apply_default/Encoder_en/KonaTransformer/Encode/TransformerStack/Layer_0/TransformerLayer/MultiheadAttention/split_heads_1/split_last_dimension/strided_slice/stack_1", "module_apply_default/Encoder_en/KonaTransformer/Encode/TransformerStack/Layer_0/TransformerLayer/MultiheadAttention/split_heads_1/split_last_dimension/strided_slice/stack_2"], "attr": {"ellipsis_mask": {"i": "0"}, "begin_mask": {"i": "0"}, "new_axis_mask": {"i": "0"}, "end_mask": {"i": "0"}, "Index": {"type": "DT_INT32"}, "T": {"type": "DT_INT32"}, "shrink_axis_mask": {"i": "1"}}}, {"name": "module_apply_default/Encoder_en/KonaTransformer/Encode/TransformerStack/Layer_0/TransformerLayer/MultiheadAttention/split_heads_1/split_last_dimension/strided_slice_1", "op": "StridedSlice", "input": ["module_apply_default/Encoder_en/KonaTransformer/Encode/TransformerStack/Layer_0/TransformerLayer/MultiheadAttention/split_heads_1/split_last_dimension/Shape", "module_apply_default/Encoder_en/KonaTransformer/Encode/TransformerStack/Layer_0/TransformerLayer/MultiheadAttention/split_heads_1/split_last_dimension/strided_slice_1/stack", "module_apply_default/Encoder_en/KonaTransformer/Encode/TransformerStack/Layer_0/TransformerLayer/MultiheadAttention/split_heads_1/split_last_dimension/strided_slice_1/stack_1", "module_apply_default/Encoder_en/KonaTransformer/Encode/TransformerStack/Layer_0/TransformerLayer/MultiheadAttention/split_heads_1/split_last_dimension/strided_slice_1/stack_2"], "attr": {"ellipsis_mask": {"i": "0"}, "begin_mask": {"i": "0"}, "new_axis_mask": {"i": "0"}, "end_mask": {"i": "0"}, "Index": {"type": "DT_INT32"}, "T": {"type": "DT_INT32"}, "shrink_axis_mask": {"i": "1"}}}, {"name": "module_apply_default/Encoder_en/KonaTransformer/Encode/TransformerStack/Layer_0/TransformerLayer/MultiheadAttention/split_heads_2/split_last_dimension/strided_slice", "op": "StridedSlice", "input": ["module_apply_default/Encoder_en/KonaTransformer/Encode/TransformerStack/Layer_0/TransformerLayer/MultiheadAttention/split_heads_2/split_last_dimension/Shape", "module_apply_default/Encoder_en/KonaTransformer/Encode/TransformerStack/Layer_0/TransformerLayer/MultiheadAttention/split_heads_2/split_last_dimension/strided_slice/stack", "module_apply_default/Encoder_en/KonaTransformer/Encode/TransformerStack/Layer_0/TransformerLayer/MultiheadAttention/split_heads_2/split_last_dimension/strided_slice/stack_1", "module_apply_default/Encoder_en/KonaTransformer/Encode/TransformerStack/Layer_0/TransformerLayer/MultiheadAttention/split_heads_2/split_last_dimension/strided_slice/stack_2"], "attr": {"begin_mask": {"i": "0"}, "ellipsis_mask": {"i": "0"}, "new_axis_mask": {"i": "0"}, "end_mask": {"i": "0"}, "Index": {"type": "DT_INT32"}, "T": {"type": "DT_INT32"}, "shrink_axis_mask": {"i": "1"}}}, {"name": "module_apply_default/Encoder_en/KonaTransformer/Encode/TransformerStack/Layer_0/TransformerLayer/MultiheadAttention/split_heads_2/split_last_dimension/strided_slice_1", "op": "StridedSlice", "input": ["module_apply_default/Encoder_en/KonaTransformer/Encode/TransformerStack/Layer_0/TransformerLayer/MultiheadAttention/split_heads_2/split_last_dimension/Shape", "module_apply_default/Encoder_en/KonaTransformer/Encode/TransformerStack/Layer_0/TransformerLayer/MultiheadAttention/split_heads_2/split_last_dimension/strided_slice_1/stack", "module_apply_default/Encoder_en/KonaTransformer/Encode/TransformerStack/Layer_0/TransformerLayer/MultiheadAttention/split_heads_2/split_last_dimension/strided_slice_1/stack_1", "module_apply_default/Encoder_en/KonaTransformer/Encode/TransformerStack/Layer_0/TransformerLayer/MultiheadAttention/split_heads_2/split_last_dimension/strided_slice_1/stack_2"], "attr": {"new_axis_mask": {"i": "0"}, "end_mask": {"i": "0"}, "Index": {"type": "DT_INT32"}, "T": {"type": "DT_INT32"}, "shrink_axis_mask": {"i": "1"}, "begin_mask": {"i": "0"}, "ellipsis_mask": {"i": "0"}}}, {"name": "module_apply_default/Encoder_en/KonaTransformer/Encode/TransformerStack/Layer_0/TransformerLayer/MultiheadAttention/split_heads/split_last_dimension/Reshape/shape", "op": "Pack", "input": ["module_apply_default/Encoder_en/KonaTransformer/Encode/TransformerStack/Layer_0/TransformerLayer/MultiheadAttention/split_heads/split_last_dimension/strided_slice", "module_apply_default/Encoder_en/KonaTransformer/Encode/TransformerStack/Layer_0/TransformerLayer/MultiheadAttention/split_heads/split_last_dimension/strided_slice_1", "module_apply_default/Encoder_en/KonaTransformer/Encode/TransformerStack/Layer_0/TransformerLayer/MultiheadAttention/split_heads/split_last_dimension/Reshape/shape/2", "module_apply_default/Encoder_en/KonaTransformer/Encode/TransformerStack/Layer_0/TransformerLayer/MultiheadAttention/split_heads/split_last_dimension/Reshape/shape/3"], "attr": {"T": {"type": "DT_INT32"}, "axis": {"i": "0"}, "N": {"i": "4"}}}, {"name": "module_apply_default/Encoder_en/KonaTransformer/Encode/TransformerStack/Layer_0/TransformerLayer/MultiheadAttention/split_heads_1/split_last_dimension/Reshape/shape", "op": "Pack", "input": ["module_apply_default/Encoder_en/KonaTransformer/Encode/TransformerStack/Layer_0/TransformerLayer/MultiheadAttention/split_heads_1/split_last_dimension/strided_slice", "module_apply_default/Encoder_en/KonaTransformer/Encode/TransformerStack/Layer_0/TransformerLayer/MultiheadAttention/split_heads_1/split_last_dimension/strided_slice_1", "module_apply_default/Encoder_en/KonaTransformer/Encode/TransformerStack/Layer_0/TransformerLayer/MultiheadAttention/split_heads_1/split_last_dimension/Reshape/shape/2", "module_apply_default/Encoder_en/KonaTransformer/Encode/TransformerStack/Layer_0/TransformerLayer/MultiheadAttention/split_heads_1/split_last_dimension/Reshape/shape/3"], "attr": {"T": {"type": "DT_INT32"}, "axis": {"i": "0"}, "N": {"i": "4"}}}, {"name": "module_apply_default/Encoder_en/KonaTransformer/Encode/TransformerStack/Layer_0/TransformerLayer/MultiheadAttention/split_heads_2/split_last_dimension/Reshape/shape", "op": "Pack", "input": ["module_apply_default/Encoder_en/KonaTransformer/Encode/TransformerStack/Layer_0/TransformerLayer/MultiheadAttention/split_heads_2/split_last_dimension/strided_slice", "module_apply_default/Encoder_en/KonaTransformer/Encode/TransformerStack/Layer_0/TransformerLayer/MultiheadAttention/split_heads_2/split_last_dimension/strided_slice_1", "module_apply_default/Encoder_en/KonaTransformer/Encode/TransformerStack/Layer_0/TransformerLayer/MultiheadAttention/split_heads_2/split_last_dimension/Reshape/shape/2", "module_apply_default/Encoder_en/KonaTransformer/Encode/TransformerStack/Layer_0/TransformerLayer/MultiheadAttention/split_heads_2/split_last_dimension/Reshape/shape/3"], "attr": {"axis": {"i": "0"}, "N": {"i": "4"}, "T": {"type": "DT_INT32"}}}, {"name": "module_apply_default/Encoder_en/KonaTransformer/Encode/TransformerStack/Layer_0/TransformerLayer/MultiheadAttention/split_heads/split_last_dimension/Reshape", "op": "Reshape", "input": ["module_apply_default/Encoder_en/KonaTransformer/Encode/TransformerStack/Layer_0/TransformerLayer/MultiheadAttention/split", "module_apply_default/Encoder_en/KonaTransformer/Encode/TransformerStack/Layer_0/TransformerLayer/MultiheadAttention/split_heads/split_last_dimension/Reshape/shape"], "attr": {"T": {"type": "DT_FLOAT"}, "Tshape": {"type": "DT_INT32"}}}, {"name": "module_apply_default/Encoder_en/KonaTransformer/Encode/TransformerStack/Layer_0/TransformerLayer/MultiheadAttention/split_heads_1/split_last_dimension/Reshape", "op": "Reshape", "input": ["module_apply_default/Encoder_en/KonaTransformer/Encode/TransformerStack/Layer_0/TransformerLayer/MultiheadAttention/split:1", "module_apply_default/Encoder_en/KonaTransformer/Encode/TransformerStack/Layer_0/TransformerLayer/MultiheadAttention/split_heads_1/split_last_dimension/Reshape/shape"], "attr": {"T": {"type": "DT_FLOAT"}, "Tshape": {"type": "DT_INT32"}}}, {"name": "module_apply_default/Encoder_en/KonaTransformer/Encode/TransformerStack/Layer_0/TransformerLayer/MultiheadAttention/split_heads_2/split_last_dimension/Reshape", "op": "Reshape", "input": ["module_apply_default/Encoder_en/KonaTransformer/Encode/TransformerStack/Layer_0/TransformerLayer/MultiheadAttention/split:2", "module_apply_default/Encoder_en/KonaTransformer/Encode/TransformerStack/Layer_0/TransformerLayer/MultiheadAttention/split_heads_2/split_last_dimension/Reshape/shape"], "attr": {"T": {"type": "DT_FLOAT"}, "Tshape": {"type": "DT_INT32"}}}, {"name": "module_apply_default/Encoder_en/KonaTransformer/Encode/TransformerStack/Layer_0/TransformerLayer/MultiheadAttention/split_heads/transpose", "op": "Transpose", "input": ["module_apply_default/Encoder_en/KonaTransformer/Encode/TransformerStack/Layer_0/TransformerLayer/MultiheadAttention/split_heads/split_last_dimension/Reshape", "module_apply_default/Encoder_en/KonaTransformer/Encode/TransformerStack/Layer_0/TransformerLayer/MultiheadAttention/split_heads/transpose/perm"], "attr": {"T": {"type": "DT_FLOAT"}, "Tperm": {"type": "DT_INT32"}}}, {"name": "module_apply_default/Encoder_en/KonaTransformer/Encode/TransformerStack/Layer_0/TransformerLayer/MultiheadAttention/split_heads_1/transpose", "op": "Transpose", "input": ["module_apply_default/Encoder_en/KonaTransformer/Encode/TransformerStack/Layer_0/TransformerLayer/MultiheadAttention/split_heads_1/split_last_dimension/Reshape", "module_apply_default/Encoder_en/KonaTransformer/Encode/TransformerStack/Layer_0/TransformerLayer/MultiheadAttention/split_heads_1/transpose/perm"], "attr": {"Tperm": {"type": "DT_INT32"}, "T": {"type": "DT_FLOAT"}}}, {"name": "module_apply_default/Encoder_en/KonaTransformer/Encode/TransformerStack/Layer_0/TransformerLayer/MultiheadAttention/split_heads_2/transpose", "op": "Transpose", "input": ["module_apply_default/Encoder_en/KonaTransformer/Encode/TransformerStack/Layer_0/TransformerLayer/MultiheadAttention/split_heads_2/split_last_dimension/Reshape", "module_apply_default/Encoder_en/KonaTransformer/Encode/TransformerStack/Layer_0/TransformerLayer/MultiheadAttention/split_heads_2/transpose/perm"], "attr": {"Tperm": {"type": "DT_INT32"}, "T": {"type": "DT_FLOAT"}}}, {"name": "module_apply_default/Encoder_en/KonaTransformer/Encode/TransformerStack/Layer_0/TransformerLayer/MultiheadAttention/mul", "op": "Mul", "input": ["module_apply_default/Encoder_en/KonaTransformer/Encode/TransformerStack/Layer_0/TransformerLayer/MultiheadAttention/split_heads/transpose", "module_apply_default/Encoder_en/KonaTransformer/Encode/TransformerStack/Layer_0/TransformerLayer/MultiheadAttention/mul/y"], "attr": {"T": {"type": "DT_FLOAT"}}}, {"name": "module_apply_default/Encoder_en/KonaTransformer/Encode/TransformerStack/Layer_0/TransformerLayer/MultiheadAttention/DotProductAttention/BaseDotProductAttention/MatMul", "op": "BatchMatMul", "input": ["module_apply_default/Encoder_en/KonaTransformer/Encode/TransformerStack/Layer_0/TransformerLayer/MultiheadAttention/mul", "module_apply_default/Encoder_en/KonaTransformer/Encode/TransformerStack/Layer_0/TransformerLayer/MultiheadAttention/split_heads_1/transpose"], "attr": {"adj_x": {"b": false}, "adj_y": {"b": true}, "T": {"type": "DT_FLOAT"}}}, {"name": "module_apply_default/Encoder_en/KonaTransformer/Encode/TransformerStack/Layer_0/TransformerLayer/MultiheadAttention/DotProductAttention/BaseDotProductAttention/add", "op": "Add", "input": ["module_apply_default/Encoder_en/KonaTransformer/Encode/TransformerStack/Layer_0/TransformerLayer/MultiheadAttention/DotProductAttention/BaseDotProductAttention/MatMul", "module_apply_default/Encoder_en/KonaTransformer/Encode/TransformerStack/Layer_0/TransformerLayer/MultiheadAttention/DotProductAttention/attention_bias_ignore_padding/ExpandDims_1"], "attr": {"T": {"type": "DT_FLOAT"}}}, {"name": "module_apply_default/Encoder_en/KonaTransformer/Encode/TransformerStack/Layer_0/TransformerLayer/MultiheadAttention/DotProductAttention/BaseDotProductAttention/Shape_1", "op": "Shape", "input": ["module_apply_default/Encoder_en/KonaTransformer/Encode/TransformerStack/Layer_0/TransformerLayer/MultiheadAttention/DotProductAttention/BaseDotProductAttention/add"], "attr": {"T": {"type": "DT_FLOAT"}, "out_type": {"type": "DT_INT32"}}}, {"name": "module_apply_default/Encoder_en/KonaTransformer/Encode/TransformerStack/Layer_0/TransformerLayer/MultiheadAttention/DotProductAttention/BaseDotProductAttention/Shape", "op": "Shape", "input": ["module_apply_default/Encoder_en/KonaTransformer/Encode/TransformerStack/Layer_0/TransformerLayer/MultiheadAttention/DotProductAttention/BaseDotProductAttention/add"], "attr": {"T": {"type": "DT_FLOAT"}, "out_type": {"type": "DT_INT32"}}}, {"name": "module_apply_default/Encoder_en/KonaTransformer/Encode/TransformerStack/Layer_0/TransformerLayer/MultiheadAttention/DotProductAttention/BaseDotProductAttention/Slice", "op": "Slice", "input": ["module_apply_default/Encoder_en/KonaTransformer/Encode/TransformerStack/Layer_0/TransformerLayer/MultiheadAttention/DotProductAttention/BaseDotProductAttention/Shape_1", "module_apply_default/Encoder_en/KonaTransformer/Encode/TransformerStack/Layer_0/TransformerLayer/MultiheadAttention/DotProductAttention/BaseDotProductAttention/Slice/begin", "module_apply_default/Encoder_en/KonaTransformer/Encode/TransformerStack/Layer_0/TransformerLayer/MultiheadAttention/DotProductAttention/BaseDotProductAttention/Slice/size"], "attr": {"T": {"type": "DT_INT32"}, "Index": {"type": "DT_INT32"}}}, {"name": "module_apply_default/Encoder_en/KonaTransformer/Encode/TransformerStack/Layer_0/TransformerLayer/MultiheadAttention/DotProductAttention/BaseDotProductAttention/concat", "op": "ConcatV2", "input": ["module_apply_default/Encoder_en/KonaTransformer/Encode/TransformerStack/Layer_0/TransformerLayer/MultiheadAttention/DotProductAttention/BaseDotProductAttention/concat/values_0", "module_apply_default/Encoder_en/KonaTransformer/Encode/TransformerStack/Layer_0/TransformerLayer/MultiheadAttention/DotProductAttention/BaseDotProductAttention/Slice", "module_apply_default/Encoder_en/KonaTransformer/Encode/TransformerStack/Layer_0/TransformerLayer/MultiheadAttention/DotProductAttention/BaseDotProductAttention/concat/axis"], "attr": {"Tidx": {"type": "DT_INT32"}, "T": {"type": "DT_INT32"}, "N": {"i": "2"}}}, {"name": "module_apply_default/Encoder_en/KonaTransformer/Encode/TransformerStack/Layer_0/TransformerLayer/MultiheadAttention/DotProductAttention/BaseDotProductAttention/Reshape", "op": "Reshape", "input": ["module_apply_default/Encoder_en/KonaTransformer/Encode/TransformerStack/Layer_0/TransformerLayer/MultiheadAttention/DotProductAttention/BaseDotProductAttention/add", "module_apply_default/Encoder_en/KonaTransformer/Encode/TransformerStack/Layer_0/TransformerLayer/MultiheadAttention/DotProductAttention/BaseDotProductAttention/concat"], "attr": {"T": {"type": "DT_FLOAT"}, "Tshape": {"type": "DT_INT32"}}}, {"name": "module_apply_default/Encoder_en/KonaTransformer/Encode/TransformerStack/Layer_0/TransformerLayer/MultiheadAttention/DotProductAttention/BaseDotProductAttention/Softmax", "op": "Softmax", "input": ["module_apply_default/Encoder_en/KonaTransformer/Encode/TransformerStack/Layer_0/TransformerLayer/MultiheadAttention/DotProductAttention/BaseDotProductAttention/Reshape"], "attr": {"T": {"type": "DT_FLOAT"}}}, {"name": "module_apply_default/Encoder_en/KonaTransformer/Encode/TransformerStack/Layer_0/TransformerLayer/MultiheadAttention/DotProductAttention/BaseDotProductAttention/attention_weights", "op": "Reshape", "input": ["module_apply_default/Encoder_en/KonaTransformer/Encode/TransformerStack/Layer_0/TransformerLayer/MultiheadAttention/DotProductAttention/BaseDotProductAttention/Softmax", "module_apply_default/Encoder_en/KonaTransformer/Encode/TransformerStack/Layer_0/TransformerLayer/MultiheadAttention/DotProductAttention/BaseDotProductAttention/Shape"], "attr": {"T": {"type": "DT_FLOAT"}, "Tshape": {"type": "DT_INT32"}}}, {"name": "module_apply_default/Encoder_en/KonaTransformer/Encode/TransformerStack/Layer_0/TransformerLayer/MultiheadAttention/DotProductAttention/BaseDotProductAttention/MatMul_1", "op": "BatchMatMul", "input": ["module_apply_default/Encoder_en/KonaTransformer/Encode/TransformerStack/Layer_0/TransformerLayer/MultiheadAttention/DotProductAttention/BaseDotProductAttention/attention_weights", "module_apply_default/Encoder_en/KonaTransformer/Encode/TransformerStack/Layer_0/TransformerLayer/MultiheadAttention/split_heads_2/transpose"], "attr": {"adj_x": {"b": false}, "adj_y": {"b": false}, "T": {"type": "DT_FLOAT"}}}, {"name": "module_apply_default/Encoder_en/KonaTransformer/Encode/TransformerStack/Layer_0/TransformerLayer/MultiheadAttention/combine_heads/transpose", "op": "Transpose", "input": ["module_apply_default/Encoder_en/KonaTransformer/Encode/TransformerStack/Layer_0/TransformerLayer/MultiheadAttention/DotProductAttention/BaseDotProductAttention/MatMul_1", "module_apply_default/Encoder_en/KonaTransformer/Encode/TransformerStack/Layer_0/TransformerLayer/MultiheadAttention/combine_heads/transpose/perm"], "attr": {"Tperm": {"type": "DT_INT32"}, "T": {"type": "DT_FLOAT"}}}, {"name": "module_apply_default/Encoder_en/KonaTransformer/Encode/TransformerStack/Layer_0/TransformerLayer/MultiheadAttention/combine_heads/combine_last_two_dimensions/Shape", "op": "Shape", "input": ["module_apply_default/Encoder_en/KonaTransformer/Encode/TransformerStack/Layer_0/TransformerLayer/MultiheadAttention/combine_heads/transpose"], "attr": {"T": {"type": "DT_FLOAT"}, "out_type": {"type": "DT_INT32"}}}, {"name": "module_apply_default/Encoder_en/KonaTransformer/Encode/TransformerStack/Layer_0/TransformerLayer/MultiheadAttention/combine_heads/combine_last_two_dimensions/strided_slice", "op": "StridedSlice", "input": ["module_apply_default/Encoder_en/KonaTransformer/Encode/TransformerStack/Layer_0/TransformerLayer/MultiheadAttention/combine_heads/combine_last_two_dimensions/Shape", "module_apply_default/Encoder_en/KonaTransformer/Encode/TransformerStack/Layer_0/TransformerLayer/MultiheadAttention/combine_heads/combine_last_two_dimensions/strided_slice/stack", "module_apply_default/Encoder_en/KonaTransformer/Encode/TransformerStack/Layer_0/TransformerLayer/MultiheadAttention/combine_heads/combine_last_two_dimensions/strided_slice/stack_1", "module_apply_default/Encoder_en/KonaTransformer/Encode/TransformerStack/Layer_0/TransformerLayer/MultiheadAttention/combine_heads/combine_last_two_dimensions/strided_slice/stack_2"], "attr": {"Index": {"type": "DT_INT32"}, "T": {"type": "DT_INT32"}, "shrink_axis_mask": {"i": "1"}, "begin_mask": {"i": "0"}, "ellipsis_mask": {"i": "0"}, "new_axis_mask": {"i": "0"}, "end_mask": {"i": "0"}}}, {"name": "module_apply_default/Encoder_en/KonaTransformer/Encode/TransformerStack/Layer_0/TransformerLayer/MultiheadAttention/combine_heads/combine_last_two_dimensions/strided_slice_1", "op": "StridedSlice", "input": ["module_apply_default/Encoder_en/KonaTransformer/Encode/TransformerStack/Layer_0/TransformerLayer/MultiheadAttention/combine_heads/combine_last_two_dimensions/Shape", "module_apply_default/Encoder_en/KonaTransformer/Encode/TransformerStack/Layer_0/TransformerLayer/MultiheadAttention/combine_heads/combine_last_two_dimensions/strided_slice_1/stack", "module_apply_default/Encoder_en/KonaTransformer/Encode/TransformerStack/Layer_0/TransformerLayer/MultiheadAttention/combine_heads/combine_last_two_dimensions/strided_slice_1/stack_1", "module_apply_default/Encoder_en/KonaTransformer/Encode/TransformerStack/Layer_0/TransformerLayer/MultiheadAttention/combine_heads/combine_last_two_dimensions/strided_slice_1/stack_2"], "attr": {"T": {"type": "DT_INT32"}, "Index": {"type": "DT_INT32"}, "shrink_axis_mask": {"i": "1"}, "begin_mask": {"i": "0"}, "ellipsis_mask": {"i": "0"}, "new_axis_mask": {"i": "0"}, "end_mask": {"i": "0"}}}, {"name": "module_apply_default/Encoder_en/KonaTransformer/Encode/TransformerStack/Layer_0/TransformerLayer/MultiheadAttention/combine_heads/combine_last_two_dimensions/Reshape/shape", "op": "Pack", "input": ["module_apply_default/Encoder_en/KonaTransformer/Encode/TransformerStack/Layer_0/TransformerLayer/MultiheadAttention/combine_heads/combine_last_two_dimensions/strided_slice", "module_apply_default/Encoder_en/KonaTransformer/Encode/TransformerStack/Layer_0/TransformerLayer/MultiheadAttention/combine_heads/combine_last_two_dimensions/strided_slice_1", "module_apply_default/Encoder_en/KonaTransformer/Encode/TransformerStack/Layer_0/TransformerLayer/MultiheadAttention/combine_heads/combine_last_two_dimensions/Reshape/shape/2"], "attr": {"axis": {"i": "0"}, "N": {"i": "3"}, "T": {"type": "DT_INT32"}}}, {"name": "module_apply_default/Encoder_en/KonaTransformer/Encode/TransformerStack/Layer_0/TransformerLayer/MultiheadAttention/combine_heads/combine_last_two_dimensions/Reshape", "op": "Reshape", "input": ["module_apply_default/Encoder_en/KonaTransformer/Encode/TransformerStack/Layer_0/TransformerLayer/MultiheadAttention/combine_heads/transpose", "module_apply_default/Encoder_en/KonaTransformer/Encode/TransformerStack/Layer_0/TransformerLayer/MultiheadAttention/combine_heads/combine_last_two_dimensions/Reshape/shape"], "attr": {"T": {"type": "DT_FLOAT"}, "Tshape": {"type": "DT_INT32"}}}, {"name": "module_apply_default/Encoder_en/KonaTransformer/Encode/TransformerStack/Layer_0/TransformerLayer/MultiheadAttention/ExpandDims_1", "op": "ExpandDims", "input": ["module_apply_default/Encoder_en/KonaTransformer/Encode/TransformerStack/Layer_0/TransformerLayer/MultiheadAttention/combine_heads/combine_last_two_dimensions/Reshape", "module_apply_default/Encoder_en/KonaTransformer/Encode/TransformerStack/Layer_0/TransformerLayer/MultiheadAttention/ExpandDims_1/dim"], "attr": {"Tdim": {"type": "DT_INT32"}, "T": {"type": "DT_FLOAT"}}}, {"name": "module_apply_default/Encoder_en/KonaTransformer/Encode/TransformerStack/Layer_0/TransformerLayer/MultiheadAttention/output_transform_single/BiasAdd", "op": "_FusedConv2D", "input": ["module_apply_default/Encoder_en/KonaTransformer/Encode/TransformerStack/Layer_0/TransformerLayer/MultiheadAttention/ExpandDims_1", "module/Encoder_en/KonaTransformer/Encode/Layer_0/TransformerLayer/MultiheadAttention/output_transform_single/kernel/part_0", "module_apply_default/Encoder_en/KonaTransformer/Encode/Layer_0/TransformerLayer/MultiheadAttention/output_transform_single/bias/ConcatPartitions/concat"], "device": "/device:CPU:0", "attr": {"explicit_paddings": {"list": {}}, "use_cudnn_on_gpu": {"b": true}, "num_args": {"i": "1"}, "epsilon": {"f": 0.0}, "padding": {"s": "VkFMSUQ="}, "fused_ops": {"list": {"s": ["Qmlhc0FkZA=="]}}, "dilations": {"list": {"i": ["1", "1", "1", "1"]}}, "T": {"type": "DT_FLOAT"}, "data_format": {"s": "TkhXQw=="}, "strides": {"list": {"i": ["1", "1", "1", "1"]}}}}, {"name": "module_apply_default/Encoder_en/KonaTransformer/Encode/TransformerStack/Layer_0/TransformerLayer/MultiheadAttention/Squeeze_1", "op": "Squeeze", "input": ["module_apply_default/Encoder_en/KonaTransformer/Encode/TransformerStack/Layer_0/TransformerLayer/MultiheadAttention/output_transform_single/BiasAdd"], "attr": {"squeeze_dims": {"list": {"i": ["2"]}}, "T": {"type": "DT_FLOAT"}}}, {"name": "module_apply_default/Encoder_en/KonaTransformer/Encode/TransformerStack/Layer_0/TransformerLayer/layer_postprocess/add", "op": "Add", "input": ["module_apply_default/Encoder_en/KonaTransformer/Encode/TransformerStack/Layer_0/TransformerLayer/MultiheadAttention/Squeeze_1", "module_apply_default/Encoder_en/KonaTransformer/Encode/TransformerStack/Layer_0/TransformerLayer/AdjustResidualInput/Scatter/ScatterNd"], "attr": {"T": {"type": "DT_FLOAT"}}}, {"name": "module_apply_default/Encoder_en/KonaTransformer/Encode/TransformerStack/Layer_0/TransformerLayer/FFN/layer_prepostprocess/layer_norm/Mean", "op": "Mean", "input": ["module_apply_default/Encoder_en/KonaTransformer/Encode/TransformerStack/Layer_0/TransformerLayer/layer_postprocess/add", "module_apply_default/Encoder_en/KonaTransformer/Encode/TransformerStack/Layer_0/TransformerLayer/FFN/layer_prepostprocess/layer_norm/Mean/reduction_indices"], "attr": {"keep_dims": {"b": true}, "Tidx": {"type": "DT_INT32"}, "T": {"type": "DT_FLOAT"}}}, {"name": "module_apply_default/Encoder_en/KonaTransformer/Encode/TransformerStack/Layer_0/TransformerLayer/FFN/layer_prepostprocess/layer_norm/sub_1", "op": "Sub", "input": ["module_apply_default/Encoder_en/KonaTransformer/Encode/TransformerStack/Layer_0/TransformerLayer/layer_postprocess/add", "module_apply_default/Encoder_en/KonaTransformer/Encode/TransformerStack/Layer_0/TransformerLayer/FFN/layer_prepostprocess/layer_norm/Mean"], "attr": {"T": {"type": "DT_FLOAT"}}}, {"name": "module_apply_default/Encoder_en/KonaTransformer/Encode/TransformerStack/Layer_0/TransformerLayer/FFN/layer_prepostprocess/layer_norm/sub", "op": "SquaredDifference", "input": ["module_apply_default/Encoder_en/KonaTransformer/Encode/TransformerStack/Layer_0/TransformerLayer/layer_postprocess/add", "module_apply_default/Encoder_en/KonaTransformer/Encode/TransformerStack/Layer_0/TransformerLayer/FFN/layer_prepostprocess/layer_norm/Mean"], "attr": {"T": {"type": "DT_FLOAT"}}}, {"name": "module_apply_default/Encoder_en/KonaTransformer/Encode/TransformerStack/Layer_0/TransformerLayer/FFN/layer_prepostprocess/layer_norm/Mean_1", "op": "Mean", "input": ["module_apply_default/Encoder_en/KonaTransformer/Encode/TransformerStack/Layer_0/TransformerLayer/FFN/layer_prepostprocess/layer_norm/sub", "module_apply_default/Encoder_en/KonaTransformer/Encode/TransformerStack/Layer_0/TransformerLayer/FFN/layer_prepostprocess/layer_norm/Mean_1/reduction_indices"], "attr": {"keep_dims": {"b": true}, "Tidx": {"type": "DT_INT32"}, "T": {"type": "DT_FLOAT"}}}, {"name": "module_apply_default/Encoder_en/KonaTransformer/Encode/TransformerStack/Layer_0/TransformerLayer/FFN/layer_prepostprocess/layer_norm/add", "op": "Add", "input": ["module_apply_default/Encoder_en/KonaTransformer/Encode/TransformerStack/Layer_0/TransformerLayer/FFN/layer_prepostprocess/layer_norm/Mean_1", "module_apply_default/Encoder_en/KonaTransformer/Encode/TransformerStack/Layer_0/TransformerLayer/FFN/layer_prepostprocess/layer_norm/Cast/x"], "attr": {"T": {"type": "DT_FLOAT"}}}, {"name": "module_apply_default/Encoder_en/KonaTransformer/Encode/TransformerStack/Layer_0/TransformerLayer/FFN/layer_prepostprocess/layer_norm/Rsqrt", "op": "Rsqrt", "input": ["module_apply_default/Encoder_en/KonaTransformer/Encode/TransformerStack/Layer_0/TransformerLayer/FFN/layer_prepostprocess/layer_norm/add"], "attr": {"T": {"type": "DT_FLOAT"}}}, {"name": "module_apply_default/Encoder_en/KonaTransformer/Encode/TransformerStack/Layer_0/TransformerLayer/FFN/layer_prepostprocess/layer_norm/mul", "op": "Mul", "input": ["module_apply_default/Encoder_en/KonaTransformer/Encode/Layer_0/TransformerLayer/FFN/layer_prepostprocess/layer_norm/layer_norm_scale/ConcatPartitions/concat", "module_apply_default/Encoder_en/KonaTransformer/Encode/TransformerStack/Layer_0/TransformerLayer/FFN/layer_prepostprocess/layer_norm/Rsqrt"], "attr": {"T": {"type": "DT_FLOAT"}}}, {"name": "module_apply_default/Encoder_en/KonaTransformer/Encode/TransformerStack/Layer_0/TransformerLayer/FFN/layer_prepostprocess/layer_norm/mul_1", "op": "Mul", "input": ["module_apply_default/Encoder_en/KonaTransformer/Encode/TransformerStack/Layer_0/TransformerLayer/FFN/layer_prepostprocess/layer_norm/sub_1", "module_apply_default/Encoder_en/KonaTransformer/Encode/TransformerStack/Layer_0/TransformerLayer/FFN/layer_prepostprocess/layer_norm/mul"], "attr": {"T": {"type": "DT_FLOAT"}}}, {"name": "module_apply_default/Encoder_en/KonaTransformer/Encode/TransformerStack/Layer_0/TransformerLayer/FFN/layer_prepostprocess/layer_norm/add_1", "op": "Add", "input": ["module_apply_default/Encoder_en/KonaTransformer/Encode/TransformerStack/Layer_0/TransformerLayer/FFN/layer_prepostprocess/layer_norm/mul_1", "module_apply_default/Encoder_en/KonaTransformer/Encode/Layer_0/TransformerLayer/FFN/layer_prepostprocess/layer_norm/layer_norm_bias/ConcatPartitions/concat"], "attr": {"T": {"type": "DT_FLOAT"}}}, {"name": "module_apply_default/Encoder_en/KonaTransformer/Encode/TransformerStack/Layer_0/TransformerLayer/FFN/Gather/GatherNd", "op": "GatherNd", "input": ["module_apply_default/Encoder_en/KonaTransformer/Encode/TransformerStack/Layer_0/TransformerLayer/FFN/layer_prepostprocess/layer_norm/add_1", "module_apply_default/Encoder_en/KonaTransformer/Encode/TransformerStack/Layer_0/TransformerLayer/FFN/StoreMask/ToInt32"], "attr": {"Tindices": {"type": "DT_INT32"}, "Tparams": {"type": "DT_FLOAT"}}}, {"name": "module_apply_default/Encoder_en/KonaTransformer/Encode/TransformerStack/Layer_0/TransformerLayer/FFN/ExpandDims", "op": "ExpandDims", "input": ["module_apply_default/Encoder_en/KonaTransformer/Encode/TransformerStack/Layer_0/TransformerLayer/FFN/Gather/GatherNd", "module_apply_default/Encoder_en/KonaTransformer/Encode/TransformerStack/Layer_0/TransformerLayer/FFN/ExpandDims/dim"], "attr": {"Tdim": {"type": "DT_INT32"}, "T": {"type": "DT_FLOAT"}}}, {"name": "module_apply_default/Encoder_en/KonaTransformer/Encode/TransformerStack/Layer_0/TransformerLayer/FFN/conv1/Tensordot/Shape", "op": "Shape", "input": ["module_apply_default/Encoder_en/KonaTransformer/Encode/TransformerStack/Layer_0/TransformerLayer/FFN/ExpandDims"], "attr": {"T": {"type": "DT_FLOAT"}, "out_type": {"type": "DT_INT32"}}}, {"name": "module_apply_default/Encoder_en/KonaTransformer/Encode/TransformerStack/Layer_0/TransformerLayer/FFN/conv1/Tensordot/GatherV2_1", "op": "GatherV2", "input": ["module_apply_default/Encoder_en/KonaTransformer/Encode/TransformerStack/Layer_0/TransformerLayer/FFN/conv1/Tensordot/Shape", "module_apply_default/Encoder_en/KonaTransformer/Encode/TransformerStack/Layer_0/TransformerLayer/FFN/conv1/Tensordot/add_1", "module_apply_default/Encoder_en/KonaTransformer/Encode/TransformerStack/Layer_0/TransformerLayer/FFN/conv1/Tensordot/GatherV2_1/axis"], "attr": {"Taxis": {"type": "DT_INT32"}, "batch_dims": {"i": "0"}, "Tindices": {"type": "DT_INT32"}, "Tparams": {"type": "DT_INT32"}}}, {"name": "module_apply_default/Encoder_en/KonaTransformer/Encode/TransformerStack/Layer_0/TransformerLayer/FFN/conv1/Tensordot/GatherV2", "op": "GatherV2", "input": ["module_apply_default/Encoder_en/KonaTransformer/Encode/TransformerStack/Layer_0/TransformerLayer/FFN/conv1/Tensordot/Shape", "ConstantFolding/module_apply_default/Encoder_en/KonaTransformer/Encode/TransformerStack/Layer_0/TransformerLayer/FFN/conv1/Tensordot/ListDiff-folded-0", "module_apply_default/Encoder_en/KonaTransformer/Encode/TransformerStack/Layer_0/TransformerLayer/FFN/conv1/Tensordot/GatherV2/axis"], "attr": {"Taxis": {"type": "DT_INT32"}, "batch_dims": {"i": "0"}, "Tindices": {"type": "DT_INT32"}, "Tparams": {"type": "DT_INT32"}}}, {"name": "module_apply_default/Encoder_en/KonaTransformer/Encode/TransformerStack/Layer_0/TransformerLayer/FFN/conv1/Tensordot/Prod_1", "op": "Prod", "input": ["module_apply_default/Encoder_en/KonaTransformer/Encode/TransformerStack/Layer_0/TransformerLayer/FFN/conv1/Tensordot/GatherV2_1", "module_apply_default/Encoder_en/KonaTransformer/Encode/TransformerStack/Layer_0/TransformerLayer/FFN/conv1/Tensordot/Const_1"], "attr": {"keep_dims": {"b": false}, "Tidx": {"type": "DT_INT32"}, "T": {"type": "DT_INT32"}}}, {"name": "module_apply_default/Encoder_en/KonaTransformer/Encode/TransformerStack/Layer_0/TransformerLayer/FFN/conv1/Tensordot/Prod", "op": "Prod", "input": ["module_apply_default/Encoder_en/KonaTransformer/Encode/TransformerStack/Layer_0/TransformerLayer/FFN/conv1/Tensordot/GatherV2", "module_apply_default/Encoder_en/KonaTransformer/Encode/TransformerStack/Layer_0/TransformerLayer/FFN/conv1/Tensordot/Const"], "attr": {"keep_dims": {"b": false}, "Tidx": {"type": "DT_INT32"}, "T": {"type": "DT_INT32"}}}, {"name": "module_apply_default/Encoder_en/KonaTransformer/Encode/TransformerStack/Layer_0/TransformerLayer/FFN/conv1/Tensordot/concat_2", "op": "ConcatV2", "input": ["module_apply_default/Encoder_en/KonaTransformer/Encode/TransformerStack/Layer_0/TransformerLayer/FFN/conv1/Tensordot/GatherV2", "module_apply_default/Encoder_en/KonaTransformer/Encode/TransformerStack/Layer_0/TransformerLayer/FFN/conv1/Tensordot/Const_2", "module_apply_default/Encoder_en/KonaTransformer/Encode/TransformerStack/Layer_0/TransformerLayer/FFN/conv1/Tensordot/concat_2/axis"], "attr": {"T": {"type": "DT_INT32"}, "N": {"i": "2"}, "Tidx": {"type": "DT_INT32"}}}, {"name": "module_apply_default/Encoder_en/KonaTransformer/Encode/TransformerStack/Layer_0/TransformerLayer/FFN/conv1/Tensordot/stack", "op": "Pack", "input": ["module_apply_default/Encoder_en/KonaTransformer/Encode/TransformerStack/Layer_0/TransformerLayer/FFN/conv1/Tensordot/Prod", "module_apply_default/Encoder_en/KonaTransformer/Encode/TransformerStack/Layer_0/TransformerLayer/FFN/conv1/Tensordot/Prod_1"], "attr": {"T": {"type": "DT_INT32"}, "axis": {"i": "0"}, "N": {"i": "2"}}}, {"name": "module_apply_default/Encoder_en/KonaTransformer/Encode/TransformerStack/Layer_0/TransformerLayer/FFN/conv1/Tensordot/Reshape", "op": "Reshape", "input": ["module_apply_default/Encoder_en/KonaTransformer/Encode/TransformerStack/Layer_0/TransformerLayer/FFN/ExpandDims", "module_apply_default/Encoder_en/KonaTransformer/Encode/TransformerStack/Layer_0/TransformerLayer/FFN/conv1/Tensordot/stack"], "attr": {"T": {"type": "DT_FLOAT"}, "Tshape": {"type": "DT_INT32"}}}, {"name": "module_apply_default/Encoder_en/KonaTransformer/Encode/TransformerStack/Layer_0/TransformerLayer/FFN/conv1/Tensordot/MatMul", "op": "MatMul", "input": ["module_apply_default/Encoder_en/KonaTransformer/Encode/TransformerStack/Layer_0/TransformerLayer/FFN/conv1/Tensordot/Reshape", "module_apply_default/Encoder_en/KonaTransformer/Encode/TransformerStack/Layer_0/TransformerLayer/FFN/conv1/Tensordot/Reshape_1"], "device": "/device:CPU:0", "attr": {"T": {"type": "DT_FLOAT"}, "transpose_a": {"b": false}, "transpose_b": {"b": false}}}, {"name": "module_apply_default/Encoder_en/KonaTransformer/Encode/TransformerStack/Layer_0/TransformerLayer/FFN/conv1/Tensordot", "op": "Reshape", "input": ["module_apply_default/Encoder_en/KonaTransformer/Encode/TransformerStack/Layer_0/TransformerLayer/FFN/conv1/Tensordot/MatMul", "module_apply_default/Encoder_en/KonaTransformer/Encode/TransformerStack/Layer_0/TransformerLayer/FFN/conv1/Tensordot/concat_2"], "attr": {"T": {"type": "DT_FLOAT"}, "Tshape": {"type": "DT_INT32"}}}, {"name": "module_apply_default/Encoder_en/KonaTransformer/Encode/TransformerStack/Layer_0/TransformerLayer/FFN/conv1/BiasAdd", "op": "BiasAdd", "input": ["module_apply_default/Encoder_en/KonaTransformer/Encode/TransformerStack/Layer_0/TransformerLayer/FFN/conv1/Tensordot", "module_apply_default/Encoder_en/KonaTransformer/Encode/Layer_0/TransformerLayer/FFN/conv1/bias/ConcatPartitions/concat"], "attr": {"T": {"type": "DT_FLOAT"}, "data_format": {"s": "TkhXQw=="}}}, {"name": "module_apply_default/Encoder_en/KonaTransformer/Encode/TransformerStack/Layer_0/TransformerLayer/FFN/conv1/Relu", "op": "Relu", "input": ["module_apply_default/Encoder_en/KonaTransformer/Encode/TransformerStack/Layer_0/TransformerLayer/FFN/conv1/BiasAdd"], "attr": {"T": {"type": "DT_FLOAT"}}}, {"name": "module_apply_default/Encoder_en/KonaTransformer/Encode/TransformerStack/Layer_0/TransformerLayer/FFN/conv2/Tensordot/Shape", "op": "Shape", "input": ["module_apply_default/Encoder_en/KonaTransformer/Encode/TransformerStack/Layer_0/TransformerLayer/FFN/conv1/Relu"], "attr": {"T": {"type": "DT_FLOAT"}, "out_type": {"type": "DT_INT32"}}}, {"name": "module_apply_default/Encoder_en/KonaTransformer/Encode/TransformerStack/Layer_0/TransformerLayer/FFN/conv2/Tensordot/GatherV2_1", "op": "GatherV2", "input": ["module_apply_default/Encoder_en/KonaTransformer/Encode/TransformerStack/Layer_0/TransformerLayer/FFN/conv2/Tensordot/Shape", "module_apply_default/Encoder_en/KonaTransformer/Encode/TransformerStack/Layer_0/TransformerLayer/FFN/conv2/Tensordot/add_1", "module_apply_default/Encoder_en/KonaTransformer/Encode/TransformerStack/Layer_0/TransformerLayer/FFN/conv2/Tensordot/GatherV2_1/axis"], "attr": {"Taxis": {"type": "DT_INT32"}, "batch_dims": {"i": "0"}, "Tindices": {"type": "DT_INT32"}, "Tparams": {"type": "DT_INT32"}}}, {"name": "module_apply_default/Encoder_en/KonaTransformer/Encode/TransformerStack/Layer_0/TransformerLayer/FFN/conv2/Tensordot/GatherV2", "op": "GatherV2", "input": ["module_apply_default/Encoder_en/KonaTransformer/Encode/TransformerStack/Layer_0/TransformerLayer/FFN/conv2/Tensordot/Shape", "ConstantFolding/module_apply_default/Encoder_en/KonaTransformer/Encode/TransformerStack/Layer_0/TransformerLayer/FFN/conv2/Tensordot/ListDiff-folded-0", "module_apply_default/Encoder_en/KonaTransformer/Encode/TransformerStack/Layer_0/TransformerLayer/FFN/conv2/Tensordot/GatherV2/axis"], "attr": {"Tindices": {"type": "DT_INT32"}, "Tparams": {"type": "DT_INT32"}, "Taxis": {"type": "DT_INT32"}, "batch_dims": {"i": "0"}}}, {"name": "module_apply_default/Encoder_en/KonaTransformer/Encode/TransformerStack/Layer_0/TransformerLayer/FFN/conv2/Tensordot/Prod_1", "op": "Prod", "input": ["module_apply_default/Encoder_en/KonaTransformer/Encode/TransformerStack/Layer_0/TransformerLayer/FFN/conv2/Tensordot/GatherV2_1", "module_apply_default/Encoder_en/KonaTransformer/Encode/TransformerStack/Layer_0/TransformerLayer/FFN/conv2/Tensordot/Const_1"], "attr": {"T": {"type": "DT_INT32"}, "keep_dims": {"b": false}, "Tidx": {"type": "DT_INT32"}}}, {"name": "module_apply_default/Encoder_en/KonaTransformer/Encode/TransformerStack/Layer_0/TransformerLayer/FFN/conv2/Tensordot/Prod", "op": "Prod", "input": ["module_apply_default/Encoder_en/KonaTransformer/Encode/TransformerStack/Layer_0/TransformerLayer/FFN/conv2/Tensordot/GatherV2", "module_apply_default/Encoder_en/KonaTransformer/Encode/TransformerStack/Layer_0/TransformerLayer/FFN/conv2/Tensordot/Const"], "attr": {"keep_dims": {"b": false}, "Tidx": {"type": "DT_INT32"}, "T": {"type": "DT_INT32"}}}, {"name": "module_apply_default/Encoder_en/KonaTransformer/Encode/TransformerStack/Layer_0/TransformerLayer/FFN/conv2/Tensordot/concat_2", "op": "ConcatV2", "input": ["module_apply_default/Encoder_en/KonaTransformer/Encode/TransformerStack/Layer_0/TransformerLayer/FFN/conv2/Tensordot/GatherV2", "module_apply_default/Encoder_en/KonaTransformer/Encode/TransformerStack/Layer_0/TransformerLayer/FFN/conv2/Tensordot/Const_2", "module_apply_default/Encoder_en/KonaTransformer/Encode/TransformerStack/Layer_0/TransformerLayer/FFN/conv2/Tensordot/concat_2/axis"], "attr": {"N": {"i": "2"}, "Tidx": {"type": "DT_INT32"}, "T": {"type": "DT_INT32"}}}, {"name": "module_apply_default/Encoder_en/KonaTransformer/Encode/TransformerStack/Layer_0/TransformerLayer/FFN/conv2/Tensordot/stack", "op": "Pack", "input": ["module_apply_default/Encoder_en/KonaTransformer/Encode/TransformerStack/Layer_0/TransformerLayer/FFN/conv2/Tensordot/Prod", "module_apply_default/Encoder_en/KonaTransformer/Encode/TransformerStack/Layer_0/TransformerLayer/FFN/conv2/Tensordot/Prod_1"], "attr": {"axis": {"i": "0"}, "N": {"i": "2"}, "T": {"type": "DT_INT32"}}}, {"name": "module_apply_default/Encoder_en/KonaTransformer/Encode/TransformerStack/Layer_0/TransformerLayer/FFN/conv2/Tensordot/Reshape", "op": "Reshape", "input": ["module_apply_default/Encoder_en/KonaTransformer/Encode/TransformerStack/Layer_0/TransformerLayer/FFN/conv1/Relu", "module_apply_default/Encoder_en/KonaTransformer/Encode/TransformerStack/Layer_0/TransformerLayer/FFN/conv2/Tensordot/stack"], "attr": {"T": {"type": "DT_FLOAT"}, "Tshape": {"type": "DT_INT32"}}}, {"name": "module_apply_default/Encoder_en/KonaTransformer/Encode/TransformerStack/Layer_0/TransformerLayer/FFN/conv2/Tensordot/MatMul", "op": "MatMul", "input": ["module_apply_default/Encoder_en/KonaTransformer/Encode/TransformerStack/Layer_0/TransformerLayer/FFN/conv2/Tensordot/Reshape", "module_apply_default/Encoder_en/KonaTransformer/Encode/TransformerStack/Layer_0/TransformerLayer/FFN/conv2/Tensordot/Reshape_1"], "device": "/device:CPU:0", "attr": {"transpose_a": {"b": false}, "transpose_b": {"b": false}, "T": {"type": "DT_FLOAT"}}}, {"name": "module_apply_default/Encoder_en/KonaTransformer/Encode/TransformerStack/Layer_0/TransformerLayer/FFN/conv2/Tensordot", "op": "Reshape", "input": ["module_apply_default/Encoder_en/KonaTransformer/Encode/TransformerStack/Layer_0/TransformerLayer/FFN/conv2/Tensordot/MatMul", "module_apply_default/Encoder_en/KonaTransformer/Encode/TransformerStack/Layer_0/TransformerLayer/FFN/conv2/Tensordot/concat_2"], "attr": {"T": {"type": "DT_FLOAT"}, "Tshape": {"type": "DT_INT32"}}}, {"name": "module_apply_default/Encoder_en/KonaTransformer/Encode/TransformerStack/Layer_0/TransformerLayer/FFN/conv2/BiasAdd", "op": "BiasAdd", "input": ["module_apply_default/Encoder_en/KonaTransformer/Encode/TransformerStack/Layer_0/TransformerLayer/FFN/conv2/Tensordot", "module_apply_default/Encoder_en/KonaTransformer/Encode/Layer_0/TransformerLayer/FFN/conv2/bias/ConcatPartitions/concat"], "attr": {"data_format": {"s": "TkhXQw=="}, "T": {"type": "DT_FLOAT"}}}, {"name": "module_apply_default/Encoder_en/KonaTransformer/Encode/TransformerStack/Layer_0/TransformerLayer/FFN/Squeeze", "op": "Squeeze", "input": ["module_apply_default/Encoder_en/KonaTransformer/Encode/TransformerStack/Layer_0/TransformerLayer/FFN/conv2/BiasAdd"], "attr": {"squeeze_dims": {"list": {"i": ["0"]}}, "T": {"type": "DT_FLOAT"}}}, {"name": "module_apply_default/Encoder_en/KonaTransformer/Encode/TransformerStack/Layer_0/TransformerLayer/FFN/Scatter/Shape", "op": "Shape", "input": ["module_apply_default/Encoder_en/KonaTransformer/Encode/TransformerStack/Layer_0/TransformerLayer/FFN/Squeeze"], "attr": {"T": {"type": "DT_FLOAT"}, "out_type": {"type": "DT_INT32"}}}, {"name": "module_apply_default/Encoder_en/KonaTransformer/Encode/TransformerStack/Layer_0/TransformerLayer/FFN/Scatter/strided_slice", "op": "StridedSlice", "input": ["module_apply_default/Encoder_en/KonaTransformer/Encode/TransformerStack/Layer_0/TransformerLayer/FFN/Scatter/Shape", "module_apply_default/Encoder_en/KonaTransformer/Encode/TransformerStack/Layer_0/TransformerLayer/FFN/Scatter/strided_slice/stack", "module_apply_default/Encoder_en/KonaTransformer/Encode/TransformerStack/Layer_0/TransformerLayer/FFN/Scatter/strided_slice/stack_1", "module_apply_default/Encoder_en/KonaTransformer/Encode/TransformerStack/Layer_0/TransformerLayer/FFN/Scatter/strided_slice/stack_2"], "attr": {"T": {"type": "DT_INT32"}, "Index": {"type": "DT_INT32"}, "shrink_axis_mask": {"i": "0"}, "ellipsis_mask": {"i": "0"}, "begin_mask": {"i": "0"}, "new_axis_mask": {"i": "0"}, "end_mask": {"i": "1"}}}, {"name": "module_apply_default/Encoder_en/KonaTransformer/Encode/TransformerStack/Layer_0/TransformerLayer/FFN/Scatter/concat", "op": "ConcatV2", "input": ["module_apply_default/Encoder_en/KonaTransformer/Encode/TransformerStack/Layer_0/TransformerLayer/FFN/StoreMask/Shape", "module_apply_default/Encoder_en/KonaTransformer/Encode/TransformerStack/Layer_0/TransformerLayer/FFN/Scatter/strided_slice", "module_apply_default/Encoder_en/KonaTransformer/Encode/TransformerStack/Layer_0/TransformerLayer/FFN/Scatter/concat/axis"], "attr": {"Tidx": {"type": "DT_INT32"}, "T": {"type": "DT_INT32"}, "N": {"i": "2"}}}, {"name": "module_apply_default/Encoder_en/KonaTransformer/Encode/TransformerStack/Layer_0/TransformerLayer/FFN/Scatter/ScatterNd", "op": "ScatterNd", "input": ["module_apply_default/Encoder_en/KonaTransformer/Encode/TransformerStack/Layer_0/TransformerLayer/FFN/StoreMask/ToInt32", "module_apply_default/Encoder_en/KonaTransformer/Encode/TransformerStack/Layer_0/TransformerLayer/FFN/Squeeze", "module_apply_default/Encoder_en/KonaTransformer/Encode/TransformerStack/Layer_0/TransformerLayer/FFN/Scatter/concat"], "attr": {"Tindices": {"type": "DT_INT32"}, "T": {"type": "DT_FLOAT"}}}, {"name": "module_apply_default/Encoder_en/KonaTransformer/Encode/TransformerStack/Layer_0/TransformerLayer/FFN/layer_postprocess/add", "op": "Add", "input": ["module_apply_default/Encoder_en/KonaTransformer/Encode/TransformerStack/Layer_0/TransformerLayer/FFN/Scatter/ScatterNd", "module_apply_default/Encoder_en/KonaTransformer/Encode/TransformerStack/Layer_0/TransformerLayer/layer_postprocess/add"], "attr": {"T": {"type": "DT_FLOAT"}}}, {"name": "module_apply_default/Encoder_en/KonaTransformer/Encode/TransformerStack/Layer_1/TransformerLayer/layer_prepostprocess/layer_norm/Mean", "op": "Mean", "input": ["module_apply_default/Encoder_en/KonaTransformer/Encode/TransformerStack/Layer_0/TransformerLayer/FFN/layer_postprocess/add", "module_apply_default/Encoder_en/KonaTransformer/Encode/TransformerStack/Layer_1/TransformerLayer/layer_prepostprocess/layer_norm/Mean/reduction_indices"], "attr": {"keep_dims": {"b": true}, "Tidx": {"type": "DT_INT32"}, "T": {"type": "DT_FLOAT"}}}, {"name": "module_apply_default/Encoder_en/KonaTransformer/Encode/TransformerStack/Layer_1/TransformerLayer/layer_prepostprocess/layer_norm/sub_1", "op": "Sub", "input": ["module_apply_default/Encoder_en/KonaTransformer/Encode/TransformerStack/Layer_0/TransformerLayer/FFN/layer_postprocess/add", "module_apply_default/Encoder_en/KonaTransformer/Encode/TransformerStack/Layer_1/TransformerLayer/layer_prepostprocess/layer_norm/Mean"], "attr": {"T": {"type": "DT_FLOAT"}}}, {"name": "module_apply_default/Encoder_en/KonaTransformer/Encode/TransformerStack/Layer_1/TransformerLayer/layer_prepostprocess/layer_norm/sub", "op": "SquaredDifference", "input": ["module_apply_default/Encoder_en/KonaTransformer/Encode/TransformerStack/Layer_0/TransformerLayer/FFN/layer_postprocess/add", "module_apply_default/Encoder_en/KonaTransformer/Encode/TransformerStack/Layer_1/TransformerLayer/layer_prepostprocess/layer_norm/Mean"], "attr": {"T": {"type": "DT_FLOAT"}}}, {"name": "module_apply_default/Encoder_en/KonaTransformer/Encode/TransformerStack/Layer_1/TransformerLayer/layer_prepostprocess/layer_norm/Mean_1", "op": "Mean", "input": ["module_apply_default/Encoder_en/KonaTransformer/Encode/TransformerStack/Layer_1/TransformerLayer/layer_prepostprocess/layer_norm/sub", "module_apply_default/Encoder_en/KonaTransformer/Encode/TransformerStack/Layer_1/TransformerLayer/layer_prepostprocess/layer_norm/Mean_1/reduction_indices"], …
ransformer/Encode/TransformerStack/Layer_1/TransformerLayer/FFN/conv2/Tensordot", "op": "Reshape", "input": ["module_apply_default/Encoder_en/KonaTransformer/Encode/TransformerStack/Layer_1/TransformerLayer/FFN/conv2/Tensordot/MatMul", "module_apply_default/Encoder_en/KonaTransformer/Encode/TransformerStack/Layer_1/TransformerLayer/FFN/conv2/Tensordot/concat_2"], "attr": {"T": {"type": "DT_FLOAT"}, "Tshape": {"type": "DT_INT32"}}}, {"name": "module_apply_default/Encoder_en/KonaTransformer/Encode/TransformerStack/Layer_1/TransformerLayer/FFN/conv2/BiasAdd", "op": "BiasAdd", "input": ["module_apply_default/Encoder_en/KonaTransformer/Encode/TransformerStack/Layer_1/TransformerLayer/FFN/conv2/Tensordot", "module_apply_default/Encoder_en/KonaTransformer/Encode/Layer_1/TransformerLayer/FFN/conv2/bias/ConcatPartitions/concat"], "attr": {"T": {"type": "DT_FLOAT"}, "data_format": {"s": "TkhXQw=="}}}, {"name": "module_apply_default/Encoder_en/KonaTransformer/Encode/TransformerStack/Layer_1/TransformerLayer/FFN/Squeeze", "op": "Squeeze", "input": ["module_apply_default/Encoder_en/KonaTransformer/Encode/TransformerStack/Layer_1/TransformerLayer/FFN/conv2/BiasAdd"], "attr": {"squeeze_dims": {"list": {"i": ["0"]}}, "T": {"type": "DT_FLOAT"}}}, {"name": "module_apply_default/Encoder_en/KonaTransformer/Encode/TransformerStack/Layer_1/TransformerLayer/FFN/Scatter/Shape", "op": "Shape", "input": ["module_apply_default/Encoder_en/KonaTransformer/Encode/TransformerStack/Layer_1/TransformerLayer/FFN/Squeeze"], "attr": {"out_type": {"type": "DT_INT32"}, "T": {"type": "DT_FLOAT"}}}, {"name": "module_apply_default/Encoder_en/KonaTransformer/Encode/TransformerStack/Layer_1/TransformerLayer/FFN/Scatter/strided_slice", "op": "StridedSlice", "input": ["module_apply_default/Encoder_en/KonaTransformer/Encode/TransformerStack/Layer_1/TransformerLayer/FFN/Scatter/Shape", "module_apply_default/Encoder_en/KonaTransformer/Encode/TransformerStack/Layer_1/TransformerLayer/FFN/Scatter/strided_slice/stack", "module_apply_default/Encoder_en/KonaTransformer/Encode/TransformerStack/Layer_1/TransformerLayer/FFN/Scatter/strided_slice/stack_1", "module_apply_default/Encoder_en/KonaTransformer/Encode/TransformerStack/Layer_1/TransformerLayer/FFN/Scatter/strided_slice/stack_2"], "attr": {"begin_mask": {"i": "0"}, "ellipsis_mask": {"i": "0"}, "new_axis_mask": {"i": "0"}, "end_mask": {"i": "1"}, "Index": {"type": "DT_INT32"}, "T": {"type": "DT_INT32"}, "shrink_axis_mask": {"i": "0"}}}, {"name": "module_apply_default/Encoder_en/KonaTransformer/Encode/TransformerStack/Layer_1/TransformerLayer/FFN/Scatter/concat", "op": "ConcatV2", "input": ["module_apply_default/Encoder_en/KonaTransformer/Encode/TransformerStack/Layer_1/TransformerLayer/FFN/StoreMask/Shape", "module_apply_default/Encoder_en/KonaTransformer/Encode/TransformerStack/Layer_1/TransformerLayer/FFN/Scatter/strided_slice", "module_apply_default/Encoder_en/KonaTransformer/Encode/TransformerStack/Layer_1/TransformerLayer/FFN/Scatter/concat/axis"], "attr": {"Tidx": {"type": "DT_INT32"}, "T": {"type": "DT_INT32"}, "N": {"i": "2"}}}, {"name": "module_apply_default/Encoder_en/KonaTransformer/Encode/TransformerStack/Layer_1/TransformerLayer/FFN/Scatter/ScatterNd", "op": "ScatterNd", "input": ["module_apply_default/Encoder_en/KonaTransformer/Encode/TransformerStack/Layer_1/TransformerLayer/FFN/StoreMask/ToInt32", "module_apply_default/Encoder_en/KonaTransformer/Encode/TransformerStack/Layer_1/TransformerLayer/FFN/Squeeze", "module_apply_default/Encoder_en/KonaTransformer/Encode/TransformerStack/Layer_1/TransformerLayer/FFN/Scatter/concat"], "attr": {"Tindices": {"type": "DT_INT32"}, "T": {"type": "DT_FLOAT"}}}, {"name": "module_apply_default/Encoder_en/KonaTransformer/Encode/TransformerStack/Layer_1/TransformerLayer/FFN/layer_postprocess/add", "op": "Add", "input": ["module_apply_default/Encoder_en/KonaTransformer/Encode/TransformerStack/Layer_1/TransformerLayer/FFN/Scatter/ScatterNd", "module_apply_default/Encoder_en/KonaTransformer/Encode/TransformerStack/Layer_1/TransformerLayer/layer_postprocess/add"], "attr": {"T": {"type": "DT_FLOAT"}}}, {"name": "module_apply_default/Encoder_en/KonaTransformer/Shape", "op": "Shape", "input": ["module_apply_default/Encoder_en/KonaTransformer/Encode/TransformerStack/Layer_1/TransformerLayer/FFN/layer_postprocess/add"], "attr": {"T": {"type": "DT_FLOAT"}, "out_type": {"type": "DT_INT32"}}}, {"name": "module_apply_default/Encoder_en/KonaTransformer/strided_slice", "op": "StridedSlice", "input": ["module_apply_default/Encoder_en/KonaTransformer/Shape", "module_apply_default/Encoder_en/KonaTransformer/strided_slice/stack", "module_apply_default/Encoder_en/KonaTransformer/strided_slice/stack_1", "module_apply_default/Encoder_en/KonaTransformer/strided_slice/stack_2"], "attr": {"shrink_axis_mask": {"i": "1"}, "ellipsis_mask": {"i": "0"}, "begin_mask": {"i": "0"}, "new_axis_mask": {"i": "0"}, "end_mask": {"i": "0"}, "Index": {"type": "DT_INT32"}, "T": {"type": "DT_INT32"}}}, {"name": "module_apply_default/Encoder_en/KonaTransformer/SequenceMask/Range", "op": "Range", "input": ["module_apply_default/Encoder_en/KonaTransformer/SequenceMask/Const", "module_apply_default/Encoder_en/KonaTransformer/strided_slice", "module_apply_default/Encoder_en/KonaTransformer/SequenceMask/Const_1"], "attr": {"Tidx": {"type": "DT_INT32"}}}, {"name": "module_apply_default/Encoder_en/KonaTransformer/SequenceMask/Less", "op": "Less", "input": ["module_apply_default/Encoder_en/KonaTransformer/SequenceMask/Range", "module_apply_default/Encoder_en/KonaTransformer/SequenceMask/ExpandDims"], "attr": {"T": {"type": "DT_INT32"}}}, {"name": "module_apply_default/Encoder_en/KonaTransformer/ToFloat", "op": "Cast", "input": ["module_apply_default/Encoder_en/KonaTransformer/SequenceMask/Less"], "attr": {"SrcT": {"type": "DT_BOOL"}, "Truncate": {"b": false}, "DstT": {"type": "DT_FLOAT"}}}, {"name": "module_apply_default/Encoder_en/KonaTransformer/ExpandDims", "op": "ExpandDims", "input": ["module_apply_default/Encoder_en/KonaTransformer/ToFloat", "module_apply_default/Encoder_en/KonaTransformer/ExpandDims/dim"], "attr": {"T": {"type": "DT_FLOAT"}, "Tdim": {"type": "DT_INT32"}}}, {"name": "module_apply_default/Encoder_en/KonaTransformer/mul", "op": "Mul", "input": ["module_apply_default/Encoder_en/KonaTransformer/Encode/TransformerStack/Layer_1/TransformerLayer/FFN/layer_postprocess/add", "module_apply_default/Encoder_en/KonaTransformer/ExpandDims"], "attr": {"T": {"type": "DT_FLOAT"}}}, {"name": "module_apply_default/Encoder_en/KonaTransformer/Sum", "op": "Sum", "input": ["module_apply_default/Encoder_en/KonaTransformer/mul", "module_apply_default/Encoder_en/KonaTransformer/Sum/reduction_indices"], "attr": {"keep_dims": {"b": false}, "Tidx": {"type": "DT_INT32"}, "T": {"type": "DT_FLOAT"}}}, {"name": "module_apply_default/Encoder_en/KonaTransformer/div", "op": "RealDiv", "input": ["module_apply_default/Encoder_en/KonaTransformer/Sum", "module_apply_default/Encoder_en/KonaTransformer/ExpandDims_1"], "attr": {"T": {"type": "DT_FLOAT"}}}, {"name": "module_apply_default/Encoder_en/hidden_layers/tanh_layer_0/BiasAdd", "op": "_FusedMatMul", "input": ["module_apply_default/Encoder_en/KonaTransformer/div", "module/Encoder_en/hidden_layers/tanh_layer_0/weights", "module/Encoder_en/hidden_layers/tanh_layer_0/bias"], "device": "/device:CPU:0", "attr": {"num_args": {"i": "1"}, "epsilon": {"f": 0.0}, "fused_ops": {"list": {"s": ["Qmlhc0FkZA=="]}}, "transpose_a": {"b": false}, "transpose_b": {"b": false}, "T": {"type": "DT_FLOAT"}}}, {"name": "module_apply_default/Encoder_en/hidden_layers/tanh_layer_0/Tanh", "op": "Tanh", "input": ["module_apply_default/Encoder_en/hidden_layers/tanh_layer_0/BiasAdd"], "attr": {"T": {"type": "DT_FLOAT"}}}, {"name": "module_apply_default/Encoder_en/hidden_layers/l2_normalize/Square", "op": "Square", "input": ["module_apply_default/Encoder_en/hidden_layers/tanh_layer_0/Tanh"], "attr": {"T": {"type": "DT_FLOAT"}}}, {"name": "module_apply_default/Encoder_en/hidden_layers/l2_normalize/Sum", "op": "Sum", "input": ["module_apply_default/Encoder_en/hidden_layers/l2_normalize/Square", "module_apply_default/Encoder_en/hidden_layers/l2_normalize/Sum/reduction_indices"], "attr": {"T": {"type": "DT_FLOAT"}, "keep_dims": {"b": true}, "Tidx": {"type": "DT_INT32"}}}, {"name": "module_apply_default/Encoder_en/hidden_layers/l2_normalize/Maximum", "op": "Maximum", "input": ["module_apply_default/Encoder_en/hidden_layers/l2_normalize/Sum", "module_apply_default/Encoder_en/hidden_layers/l2_normalize/Maximum/y"], "attr": {"T": {"type": "DT_FLOAT"}}}, {"name": "module_apply_default/Encoder_en/hidden_layers/l2_normalize/Rsqrt", "op": "Rsqrt", "input": ["module_apply_default/Encoder_en/hidden_layers/l2_normalize/Maximum"], "attr": {"T": {"type": "DT_FLOAT"}}}, {"name": "module_apply_default/Encoder_en/hidden_layers/l2_normalize", "op": "Mul", "input": ["module_apply_default/Encoder_en/hidden_layers/tanh_layer_0/Tanh", "module_apply_default/Encoder_en/hidden_layers/l2_normalize/Rsqrt"], "attr": {"T": {"type": "DT_FLOAT"}}}], "library": {}, "versions": {}}, "weightsManifest": [{"paths": ["group1-shard1of7.bin", "group1-shard2of7.bin", "group1-shard3of7.bin", "group1-shard4of7.bin", "group1-shard5of7.bin", "group1-shard6of7.bin", "group1-shard7of7.bin"], "weights": [{"name": "module_apply_default/Encoder_en/KonaTransformer/SequenceMask/Const", "shape": [], "dtype": "int32"}, {"name": "module_apply_default/Encoder_en/KonaTransformer/Encode/TransformerStack/Layer_1/TransformerLayer/FFN/conv2/Tensordot/Const", "shape": [1], "dtype": "int32"}, {"name": "module_apply_default/Encoder_en/KonaTransformer/Encode/TransformerStack/Layer_1/TransformerLayer/FFN/conv2/Tensordot/add_1", "shape": [1], "dtype": "int32"}, {"name": "module_apply_default/Encoder_en/KonaTransformer/Encode/TransformerStack/Layer_1/TransformerLayer/FFN/conv2/Tensordot/GatherV2_1/axis", "shape": [], "dtype": "int32"}, {"name": "module_apply_default/Encoder_en/KonaTransformer/Encode/TransformerStack/Layer_1/TransformerLayer/FFN/conv2/Tensordot/Const_1", "shape": [1], "dtype": "int32"}, {"name": "module_apply_default/Encoder_en/KonaTransformer/Encode/TransformerStack/Layer_1/TransformerLayer/FFN/conv2/Tensordot/Reshape_1", "shape": [1536, 512], "dtype": "float32"}, {"name": "module_apply_default/Encoder_en/KonaTransformer/Encode/TransformerStack/Layer_1/TransformerLayer/FFN/conv1/Tensordot/Const", "shape": [1], "dtype": "int32"}, {"name": "module_apply_default/Encoder_en/KonaTransformer/Encode/TransformerStack/Layer_1/TransformerLayer/FFN/conv1/Tensordot/add_1", "shape": [1], "dtype": "int32"}, {"name": "module_apply_default/Encoder_en/KonaTransformer/Encode/TransformerStack/Layer_1/TransformerLayer/FFN/conv1/Tensordot/GatherV2_1/axis", "shape": [], "dtype": "int32"}, {"name": "module_apply_default/Encoder_en/KonaTransformer/Encode/TransformerStack/Layer_1/TransformerLayer/FFN/conv1/Tensordot/Const_1", "shape": [1], "dtype": "int32"}, {"name": "module_apply_default/Encoder_en/KonaTransformer/Encode/TransformerStack/Layer_1/TransformerLayer/FFN/conv1/Tensordot/Reshape_1", "shape": [512, 1536], "dtype": "float32"}, {"name": "module_apply_default/Encoder_en/KonaTransformer/Encode/Layer_1/TransformerLayer/FFN/layer_prepostprocess/layer_norm/layer_norm_scale/ConcatPartitions/concat", "shape": [512], "dtype": "float32"}, {"name": "module_apply_default/Encoder_en/KonaTransformer/Encode/TransformerStack/Layer_1/TransformerLayer/FFN/layer_prepostprocess/layer_norm/Mean/reduction_indices", "shape": [1], "dtype": "int32"}, {"name": "module_apply_default/Encoder_en/KonaTransformer/Encode/TransformerStack/Layer_1/TransformerLayer/FFN/layer_prepostprocess/layer_norm/Mean_1/reduction_indices", "shape": [1], "dtype": "int32"}, {"name": "module_apply_default/Encoder_en/KonaTransformer/Encode/TransformerStack/Layer_1/TransformerLayer/FFN/layer_prepostprocess/layer_norm/Cast/x", "shape": [], "dtype": "float32"}, {"name": "module_apply_default/Encoder_en/KonaTransformer/Encode/Layer_1/TransformerLayer/FFN/layer_prepostprocess/layer_norm/layer_norm_bias/ConcatPartitions/concat", "shape": [512], "dtype": "float32"}, {"name": "module_apply_default/Encoder_en/KonaTransformer/Encode/TransformerStack/Layer_1/TransformerLayer/FFN/ExpandDims/dim", "shape": [], "dtype": "int32"}, {"name": "ConstantFolding/module_apply_default/Encoder_en/KonaTransformer/Encode/TransformerStack/Layer_1/TransformerLayer/FFN/conv1/Tensordot/ListDiff-folded-0", "shape": [2], "dtype": "int32"}, {"name": "module_apply_default/Encoder_en/KonaTransformer/Encode/TransformerStack/Layer_1/TransformerLayer/FFN/conv1/Tensordot/GatherV2/axis", "shape": [], "dtype": "int32"}, {"name": "module_apply_default/Encoder_en/KonaTransformer/Encode/TransformerStack/Layer_1/TransformerLayer/FFN/conv1/Tensordot/Const_2", "shape": [1], "dtype": "int32"}, {"name": "module_apply_default/Encoder_en/KonaTransformer/Encode/TransformerStack/Layer_1/TransformerLayer/FFN/conv1/Tensordot/concat_2/axis", "shape": [], "dtype": "int32"}, {"name": "module_apply_default/Encoder_en/KonaTransformer/Encode/Layer_1/TransformerLayer/FFN/conv1/bias/ConcatPartitions/concat", "shape": [1536], "dtype": "float32"}, {"name": "ConstantFolding/module_apply_default/Encoder_en/KonaTransformer/Encode/TransformerStack/Layer_1/TransformerLayer/FFN/conv2/Tensordot/ListDiff-folded-0", "shape": [2], "dtype": "int32"}, {"name": "module_apply_default/Encoder_en/KonaTransformer/Encode/TransformerStack/Layer_1/TransformerLayer/FFN/conv2/Tensordot/GatherV2/axis", "shape": [], "dtype": "int32"}, {"name": "module_apply_default/Encoder_en/KonaTransformer/Encode/TransformerStack/Layer_1/TransformerLayer/FFN/conv2/Tensordot/Const_2", "shape": [1], "dtype": "int32"}, {"name": "module_apply_default/Encoder_en/KonaTransformer/Encode/TransformerStack/Layer_1/TransformerLayer/FFN/conv2/Tensordot/concat_2/axis", "shape": [], "dtype": "int32"}, {"name": "module_apply_default/Encoder_en/KonaTransformer/Encode/Layer_1/TransformerLayer/FFN/conv2/bias/ConcatPartitions/concat", "shape": [512], "dtype": "float32"}, {"name": "module_apply_default/Encoder_en/KonaTransformer/Encode/TransformerStack/Layer_1/TransformerLayer/FFN/Scatter/strided_slice/stack", "shape": [1], "dtype": "int32"}, {"name": "module_apply_default/Encoder_en/KonaTransformer/Encode/TransformerStack/Layer_1/TransformerLayer/FFN/Scatter/strided_slice/stack_1", "shape": [1], "dtype": "int32"}, {"name": "module_apply_default/Encoder_en/KonaTransformer/Encode/TransformerStack/Layer_1/TransformerLayer/FFN/Scatter/strided_slice/stack_2", "shape": [1], "dtype": "int32"}, {"name": "module_apply_default/Encoder_en/KonaTransformer/Encode/TransformerStack/Layer_1/TransformerLayer/FFN/Scatter/concat/axis", "shape": [], "dtype": "int32"}, {"name": "module_apply_default/Encoder_en/KonaTransformer/Encode/TransformerStack/Layer_1/TransformerLayer/MultiheadAttention/combine_heads/combine_last_two_dimensions/strided_slice/stack", "shape": [1], "dtype": "int32"}, {"name": "module_apply_default/Encoder_en/KonaTransformer/Encode/TransformerStack/Layer_1/TransformerLayer/MultiheadAttention/combine_heads/combine_last_two_dimensions/strided_slice/stack_1", "shape": [1], "dtype": "int32"}, {"name": "module_apply_default/Encoder_en/KonaTransformer/Encode/TransformerStack/Layer_1/TransformerLayer/MultiheadAttention/combine_heads/combine_last_two_dimensions/strided_slice/stack_2", "shape": [1], "dtype": "int32"}, {"name": "module_apply_default/Encoder_en/KonaTransformer/Encode/TransformerStack/Layer_1/TransformerLayer/MultiheadAttention/DotProductAttention/BaseDotProductAttention/concat/values_0", "shape": [1], "dtype": "int32"}, {"name": "module_apply_default/Encoder_en/KonaTransformer/Encode/TransformerStack/Layer_1/TransformerLayer/MultiheadAttention/DotProductAttention/BaseDotProductAttention/Slice/begin", "shape": [1], "dtype": "int32"}, {"name": "module_apply_default/Encoder_en/KonaTransformer/Encode/TransformerStack/Layer_1/TransformerLayer/MultiheadAttention/DotProductAttention/BaseDotProductAttention/Slice/size", "shape": [1], "dtype": "int32"}, {"name": "module_apply_default/Encoder_en/KonaTransformer/Encode/TransformerStack/Layer_1/TransformerLayer/MultiheadAttention/DotProductAttention/BaseDotProductAttention/concat/axis", "shape": [], "dtype": "int32"}, {"name": "module_apply_default/Encoder_en/KonaTransformer/Encode/TransformerStack/Layer_1/TransformerLayer/MultiheadAttention/split_heads/split_last_dimension/strided_slice/stack", "shape": [1], "dtype": "int32"}, {"name": "module_apply_default/Encoder_en/KonaTransformer/Encode/TransformerStack/Layer_1/TransformerLayer/MultiheadAttention/split_heads/split_last_dimension/strided_slice/stack_1", "shape": [1], "dtype": "int32"}, {"name": "module_apply_default/Encoder_en/KonaTransformer/Encode/TransformerStack/Layer_1/TransformerLayer/MultiheadAttention/split_heads/split_last_dimension/strided_slice/stack_2", "shape": [1], "dtype": "int32"}, {"name": "module_apply_default/Encoder_en/KonaTransformer/Encode/TransformerStack/Layer_1/TransformerLayer/MultiheadAttention/split_heads/split_last_dimension/strided_slice_1/stack", "shape": [1], "dtype": "int32"}, {"name": "module_apply_default/Encoder_en/KonaTransformer/Encode/TransformerStack/Layer_1/TransformerLayer/MultiheadAttention/split_heads/split_last_dimension/strided_slice_1/stack_1", "shape": [1], "dtype": "int32"}, {"name": "module_apply_default/Encoder_en/KonaTransformer/Encode/TransformerStack/Layer_1/TransformerLayer/MultiheadAttention/split_heads/split_last_dimension/strided_slice_1/stack_2", "shape": [1], "dtype": "int32"}, {"name": "module_apply_default/Encoder_en/KonaTransformer/Encode/TransformerStack/Layer_1/TransformerLayer/MultiheadAttention/split_heads/split_last_dimension/Reshape/shape/2", "shape": [], "dtype": "int32"}, {"name": "module_apply_default/Encoder_en/KonaTransformer/Encode/TransformerStack/Layer_1/TransformerLayer/MultiheadAttention/split_heads/split_last_dimension/Reshape/shape/3", "shape": [], "dtype": "int32"}, {"name": "module_apply_default/Encoder_en/KonaTransformer/Encode/TransformerStack/Layer_1/TransformerLayer/MultiheadAttention/split_heads/transpose/perm", "shape": [4], "dtype": "int32"}, {"name": "module_apply_default/Encoder_en/KonaTransformer/Encode/TransformerStack/Layer_1/TransformerLayer/MultiheadAttention/mul/y", "shape": [], "dtype": "float32"}, {"name": "module_apply_default/Encoder_en/KonaTransformer/Encode/TransformerStack/Layer_1/TransformerLayer/MultiheadAttention/split_heads_1/split_last_dimension/strided_slice/stack", "shape": [1], "dtype": "int32"}, {"name": "module_apply_default/Encoder_en/KonaTransformer/Encode/TransformerStack/Layer_1/TransformerLayer/MultiheadAttention/split_heads_1/split_last_dimension/strided_slice/stack_1", "shape": [1], "dtype": "int32"}, {"name": "module_apply_default/Encoder_en/KonaTransformer/Encode/TransformerStack/Layer_1/TransformerLayer/MultiheadAttention/split_heads_1/split_last_dimension/strided_slice/stack_2", "shape": [1], "dtype": "int32"}, {"name": "module_apply_default/Encoder_en/KonaTransformer/Encode/TransformerStack/Layer_1/TransformerLayer/MultiheadAttention/split_heads_1/split_last_dimension/strided_slice_1/stack", "shape": [1], "dtype": "int32"}, {"name": "module_apply_default/Encoder_en/KonaTransformer/Encode/TransformerStack/Layer_1/TransformerLayer/MultiheadAttention/split_heads_1/split_last_dimension/strided_slice_1/stack_1", "shape": [1], "dtype": "int32"}, {"name": "module_apply_default/Encoder_en/KonaTransformer/Encode/TransformerStack/Layer_1/TransformerLayer/MultiheadAttention/split_heads_1/split_last_dimension/strided_slice_1/stack_2", "shape": [1], "dtype": "int32"}, {"name": "module_apply_default/Encoder_en/KonaTransformer/Encode/TransformerStack/Layer_1/TransformerLayer/MultiheadAttention/split_heads_1/split_last_dimension/Reshape/shape/2", "shape": [], "dtype": "int32"}, {"name": "module_apply_default/Encoder_en/KonaTransformer/Encode/TransformerStack/Layer_1/TransformerLayer/MultiheadAttention/split_heads_1/split_last_dimension/Reshape/shape/3", "shape": [], "dtype": "int32"}, {"name": "module_apply_default/Encoder_en/KonaTransformer/Encode/TransformerStack/Layer_1/TransformerLayer/MultiheadAttention/split_heads_1/transpose/perm", "shape": [4], "dtype": "int32"}, {"name": "module_apply_default/Encoder_en/KonaTransformer/Encode/TransformerStack/Layer_1/TransformerLayer/MultiheadAttention/DotProductAttention/attention_bias_ignore_padding/mul/y", "shape": [], "dtype": "float32"}, {"name": "module_apply_default/Encoder_en/KonaTransformer/Encode/TransformerStack/Layer_1/TransformerLayer/MultiheadAttention/DotProductAttention/attention_bias_ignore_padding/ExpandDims/dim", "shape": [], "dtype": "int32"}, {"name": "module_apply_default/Encoder_en/KonaTransformer/Encode/TransformerStack/Layer_1/TransformerLayer/MultiheadAttention/DotProductAttention/attention_bias_ignore_padding/ExpandDims_1/dim", "shape": [], "dtype": "int32"}, {"name": "module_apply_default/Encoder_en/KonaTransformer/Encode/TransformerStack/Layer_1/TransformerLayer/MultiheadAttention/split_heads_2/split_last_dimension/strided_slice/stack", "shape": [1], "dtype": "int32"}, {"name": "module_apply_default/Encoder_en/KonaTransformer/Encode/TransformerStack/Layer_1/TransformerLayer/MultiheadAttention/split_heads_2/split_last_dimension/strided_slice/stack_1", "shape": [1], "dtype": "int32"}, {"name": "module_apply_default/Encoder_en/KonaTransformer/Encode/TransformerStack/Layer_1/TransformerLayer/MultiheadAttention/split_heads_2/split_last_dimension/strided_slice/stack_2", "shape": [1], "dtype": "int32"}, {"name": "module_apply_default/Encoder_en/KonaTransformer/Encode/Layer_1/TransformerLayer/layer_prepostprocess/layer_norm/layer_norm_scale/ConcatPartitions/concat", "shape": [512], "dtype": "float32"}, {"name": "module_apply_default/Encoder_en/KonaTransformer/Encode/TransformerStack/Layer_1/TransformerLayer/layer_prepostprocess/layer_norm/Mean/reduction_indices", "shape": [1], "dtype": "int32"}, {"name": "module_apply_default/Encoder_en/KonaTransformer/Encode/TransformerStack/Layer_1/TransformerLayer/layer_prepostprocess/layer_norm/Mean_1/reduction_indices", "shape": [1], "dtype": "int32"}, {"name": "module_apply_default/Encoder_en/KonaTransformer/Encode/TransformerStack/Layer_1/TransformerLayer/layer_prepostprocess/layer_norm/Cast/x", "shape": [], "dtype": "float32"}, {"name": "module_apply_default/Encoder_en/KonaTransformer/Encode/Layer_1/TransformerLayer/layer_prepostprocess/layer_norm/layer_norm_bias/ConcatPartitions/concat", "shape": [512], "dtype": "float32"}, {"name": "module_apply_default/Encoder_en/KonaTransformer/Encode/TransformerStack/Layer_1/TransformerLayer/MultiheadAttention/ExpandDims/dim", "shape": [], "dtype": "int32"}, {"name": "module/Encoder_en/KonaTransformer/Encode/Layer_1/TransformerLayer/MultiheadAttention/qkv_transform_single/kernel/part_0", "shape": [1, 1, 512, 1536], "dtype": "float32"}, {"name": "module_apply_default/Encoder_en/KonaTransformer/Encode/Layer_1/TransformerLayer/MultiheadAttention/qkv_transform_single/bias/ConcatPartitions/concat", "shape": [1536], "dtype": "float32"}, {"name": "module_apply_default/Encoder_en/KonaTransformer/Encode/TransformerStack/Layer_1/TransformerLayer/MultiheadAttention/Const", "shape": [3], "dtype": "int32"}, {"name": "module_apply_default/Encoder_en/KonaTransformer/Encode/TransformerStack/Layer_1/TransformerLayer/MultiheadAttention/split/split_dim", "shape": [], "dtype": "int32"}, {"name": "module_apply_default/Encoder_en/KonaTransformer/Encode/TransformerStack/Layer_1/TransformerLayer/MultiheadAttention/split_heads_2/split_last_dimension/strided_slice_1/stack", "shape": [1], "dtype": "int32"}, {"name": "module_apply_default/Encoder_en/KonaTransformer/Encode/TransformerStack/Layer_1/TransformerLayer/MultiheadAttention/split_heads_2/split_last_dimension/strided_slice_1/stack_1", "shape": [1], "dtype": "int32"}, {"name": "module_apply_default/Encoder_en/KonaTransformer/Encode/TransformerStack/Layer_1/TransformerLayer/MultiheadAttention/split_heads_2/split_last_dimension/strided_slice_1/stack_2", "shape": [1], "dtype": "int32"}, {"name": "module_apply_default/Encoder_en/KonaTransformer/Encode/TransformerStack/Layer_1/TransformerLayer/MultiheadAttention/split_heads_2/split_last_dimension/Reshape/shape/2", "shape": [], "dtype": "int32"}, {"name": "module_apply_default/Encoder_en/KonaTransformer/Encode/TransformerStack/Layer_1/TransformerLayer/MultiheadAttention/split_heads_2/split_last_dimension/Reshape/shape/3", "shape": [], "dtype": "int32"}, {"name": "module_apply_default/Encoder_en/KonaTransformer/Encode/TransformerStack/Layer_1/TransformerLayer/MultiheadAttention/split_heads_2/transpose/perm", "shape": [4], "dtype": "int32"}, {"name": "module_apply_default/Encoder_en/KonaTransformer/Encode/TransformerStack/Layer_1/TransformerLayer/MultiheadAttention/combine_heads/transpose/perm", "shape": [4], "dtype": "int32"}, {"name": "module_apply_default/Encoder_en/KonaTransformer/Encode/TransformerStack/Layer_1/TransformerLayer/MultiheadAttention/combine_heads/combine_last_two_dimensions/strided_slice_1/stack", "shape": [1], "dtype": "int32"}, {"name": "module_apply_default/Encoder_en/KonaTransformer/Encode/TransformerStack/Layer_1/TransformerLayer/MultiheadAttention/combine_heads/combine_last_two_dimensions/strided_slice_1/stack_1", "shape": [1], "dtype": "int32"}, {"name": "module_apply_default/Encoder_en/KonaTransformer/Encode/TransformerStack/Layer_1/TransformerLayer/MultiheadAttention/combine_heads/combine_last_two_dimensions/strided_slice_1/stack_2", "shape": [1], "dtype": "int32"}, {"name": "module_apply_default/Encoder_en/KonaTransformer/Encode/TransformerStack/Layer_1/TransformerLayer/MultiheadAttention/combine_heads/combine_last_two_dimensions/Reshape/shape/2", "shape": [], "dtype": "int32"}, {"name": "module_apply_default/Encoder_en/KonaTransformer/Encode/TransformerStack/Layer_1/TransformerLayer/MultiheadAttention/ExpandDims_1/dim", "shape": [], "dtype": "int32"}, {"name": "module/Encoder_en/KonaTransformer/Encode/Layer_1/TransformerLayer/MultiheadAttention/output_transform_single/kernel/part_0", "shape": [1, 1, 512, 512], "dtype": "float32"}, {"name": "module_apply_default/Encoder_en/KonaTransformer/Encode/Layer_1/TransformerLayer/MultiheadAttention/output_transform_single/bias/ConcatPartitions/concat", "shape": [512], "dtype": "float32"}, {"name": "module_apply_default/Encoder_en/KonaTransformer/Encode/TransformerStack/Layer_0/TransformerLayer/FFN/conv2/Tensordot/Const", "shape": [1], "dtype": "int32"}, {"name": "module_apply_default/Encoder_en/KonaTransformer/Encode/TransformerStack/Layer_0/TransformerLayer/FFN/conv2/Tensordot/add_1", "shape": [1], "dtype": "int32"}, {"name": "module_apply_default/Encoder_en/KonaTransformer/Encode/TransformerStack/Layer_0/TransformerLayer/FFN/conv2/Tensordot/GatherV2_1/axis", "shape": [], "dtype": "int32"}, {"name": "module_apply_default/Encoder_en/KonaTransformer/Encode/TransformerStack/Layer_0/TransformerLayer/FFN/conv2/Tensordot/Const_1", "shape": [1], "dtype": "int32"}, {"name": "module_apply_default/Encoder_en/KonaTransformer/Encode/TransformerStack/Layer_0/TransformerLayer/FFN/conv2/Tensordot/Reshape_1", "shape": [1536, 512], "dtype": "float32"}, {"name": "module_apply_default/Encoder_en/KonaTransformer/Encode/TransformerStack/Layer_0/TransformerLayer/FFN/conv1/Tensordot/Const", "shape": [1], "dtype": "int32"}, {"name": "module_apply_default/Encoder_en/KonaTransformer/Encode/TransformerStack/Layer_0/TransformerLayer/FFN/conv1/Tensordot/add_1", "shape": [1], "dtype": "int32"}, {"name": "module_apply_default/Encoder_en/KonaTransformer/Encode/TransformerStack/Layer_0/TransformerLayer/FFN/conv1/Tensordot/GatherV2_1/axis", "shape": [], "dtype": "int32"}, {"name": "module_apply_default/Encoder_en/KonaTransformer/Encode/TransformerStack/Layer_0/TransformerLayer/FFN/conv1/Tensordot/Const_1", "shape": [1], "dtype": "int32"}, {"name": "module_apply_default/Encoder_en/KonaTransformer/Encode/TransformerStack/Layer_0/TransformerLayer/FFN/conv1/Tensordot/Reshape_1", "shape": [512, 1536], "dtype": "float32"}, {"name": "module_apply_default/Encoder_en/KonaTransformer/Encode/Layer_0/TransformerLayer/FFN/layer_prepostprocess/layer_norm/layer_norm_scale/ConcatPartitions/concat", "shape": [512], "dtype": "float32"}, {"name": "module_apply_default/Encoder_en/KonaTransformer/Encode/TransformerStack/Layer_0/TransformerLayer/FFN/layer_prepostprocess/layer_norm/Mean/reduction_indices", "shape": [1], "dtype": "int32"}, {"name": "module_apply_default/Encoder_en/KonaTransformer/Encode/TransformerStack/Layer_0/TransformerLayer/FFN/layer_prepostprocess/layer_norm/Mean_1/reduction_indices", "shape": [1], "dtype": "int32"}, {"name": "module_apply_default/Encoder_en/KonaTransformer/Encode/TransformerStack/Layer_0/TransformerLayer/FFN/layer_prepostprocess/layer_norm/Cast/x", "shape": [], "dtype": "float32"}, {"name": "module_apply_default/Encoder_en/KonaTransformer/Encode/Layer_0/TransformerLayer/FFN/layer_prepostprocess/layer_norm/layer_norm_bias/ConcatPartitions/concat", "shape": [512], "dtype": "float32"}, {"name": "module_apply_default/Encoder_en/KonaTransformer/Encode/TransformerStack/Layer_0/TransformerLayer/FFN/ExpandDims/dim", "shape": [], "dtype": "int32"}, {"name": "ConstantFolding/module_apply_default/Encoder_en/KonaTransformer/Encode/TransformerStack/Layer_0/TransformerLayer/FFN/conv1/Tensordot/ListDiff-folded-0", "shape": [2], "dtype": "int32"}, {"name": "module_apply_default/Encoder_en/KonaTransformer/Encode/TransformerStack/Layer_0/TransformerLayer/FFN/conv1/Tensordot/GatherV2/axis", "shape": [], "dtype": "int32"}, {"name": "module_apply_default/Encoder_en/KonaTransformer/Encode/TransformerStack/Layer_0/TransformerLayer/FFN/conv1/Tensordot/Const_2", "shape": [1], "dtype": "int32"}, {"name": "module_apply_default/Encoder_en/KonaTransformer/Encode/TransformerStack/Layer_0/TransformerLayer/FFN/conv1/Tensordot/concat_2/axis", "shape": [], "dtype": "int32"}, {"name": "module_apply_default/Encoder_en/KonaTransformer/Encode/Layer_0/TransformerLayer/FFN/conv1/bias/ConcatPartitions/concat", "shape": [1536], "dtype": "float32"}, {"name": "ConstantFolding/module_apply_default/Encoder_en/KonaTransformer/Encode/TransformerStack/Layer_0/TransformerLayer/FFN/conv2/Tensordot/ListDiff-folded-0", "shape": [2], "dtype": "int32"}, {"name": "module_apply_default/Encoder_en/KonaTransformer/Encode/TransformerStack/Layer_0/TransformerLayer/FFN/conv2/Tensordot/GatherV2/axis", "shape": [], "dtype": "int32"}, {"name": "module_apply_default/Encoder_en/KonaTransformer/Encode/TransformerStack/Layer_0/TransformerLayer/FFN/conv2/Tensordot/Const_2", "shape": [1], "dtype": "int32"}, {"name": "module_apply_default/Encoder_en/KonaTransformer/Encode/TransformerStack/Layer_0/TransformerLayer/FFN/conv2/Tensordot/concat_2/axis", "shape": [], "dtype": "int32"}, {"name": "module_apply_default/Encoder_en/KonaTransformer/Encode/Layer_0/TransformerLayer/FFN/conv2/bias/ConcatPartitions/concat", "shape": [512], "dtype": "float32"}, {"name": "module_apply_default/Encoder_en/KonaTransformer/Encode/TransformerStack/Layer_0/TransformerLayer/FFN/Scatter/strided_slice/stack", "shape": [1], "dtype": "int32"}, {"name": "module_apply_default/Encoder_en/KonaTransformer/Encode/TransformerStack/Layer_0/TransformerLayer/FFN/Scatter/strided_slice/stack_1", "shape": [1], "dtype": "int32"}, {"name": "module_apply_default/Encoder_en/KonaTransformer/Encode/TransformerStack/Layer_0/TransformerLayer/FFN/Scatter/strided_slice/stack_2", "shape": [1], "dtype": "int32"}, {"name": "module_apply_default/Encoder_en/KonaTransformer/Encode/TransformerStack/Layer_0/TransformerLayer/FFN/Scatter/concat/axis", "shape": [], "dtype": "int32"}, {"name": "module_apply_default/Encoder_en/KonaTransformer/Encode/TransformerStack/Layer_0/TransformerLayer/MultiheadAttention/combine_heads/combine_last_two_dimensions/strided_slice/stack", "shape": [1], "dtype": "int32"}, {"name": "module_apply_default/Encoder_en/KonaTransformer/Encode/TransformerStack/Layer_0/TransformerLayer/MultiheadAttention/combine_heads/combine_last_two_dimensions/strided_slice/stack_1", "shape": [1], "dtype": "int32"}, {"name": "module_apply_default/Encoder_en/KonaTransformer/Encode/TransformerStack/Layer_0/TransformerLayer/MultiheadAttention/combine_heads/combine_last_two_dimensions/strided_slice/stack_2", "shape": [1], "dtype": "int32"}, {"name": "module_apply_default/Encoder_en/KonaTransformer/Encode/TransformerStack/Layer_0/TransformerLayer/MultiheadAttention/DotProductAttention/BaseDotProductAttention/concat/values_0", "shape": [1], "dtype": "int32"}, {"name": "module_apply_default/Encoder_en/KonaTransformer/Encode/TransformerStack/Layer_0/TransformerLayer/MultiheadAttention/DotProductAttention/BaseDotProductAttention/Slice/begin", "shape": [1], "dtype": "int32"}, {"name": "module_apply_default/Encoder_en/KonaTransformer/Encode/TransformerStack/Layer_0/TransformerLayer/MultiheadAttention/DotProductAttention/BaseDotProductAttention/Slice/size", "shape": [1], "dtype": "int32"}, {"name": "module_apply_default/Encoder_en/KonaTransformer/Encode/TransformerStack/Layer_0/TransformerLayer/MultiheadAttention/DotProductAttention/BaseDotProductAttention/concat/axis", "shape": [], "dtype": "int32"}, {"name": "module_apply_default/Encoder_en/KonaTransformer/Encode/TransformerStack/Layer_0/TransformerLayer/MultiheadAttention/split_heads/split_last_dimension/strided_slice/stack", "shape": [1], "dtype": "int32"}, {"name": "module_apply_default/Encoder_en/KonaTransformer/Encode/TransformerStack/Layer_0/TransformerLayer/MultiheadAttention/split_heads/split_last_dimension/strided_slice/stack_1", "shape": [1], "dtype": "int32"}, {"name": "module_apply_default/Encoder_en/KonaTransformer/Encode/TransformerStack/Layer_0/TransformerLayer/MultiheadAttention/split_heads/split_last_dimension/strided_slice/stack_2", "shape": [1], "dtype": "int32"}, {"name": "module_apply_default/Encoder_en/KonaTransformer/Encode/TransformerStack/Layer_0/TransformerLayer/MultiheadAttention/split_heads/split_last_dimension/strided_slice_1/stack", "shape": [1], "dtype": "int32"}, {"name": "module_apply_default/Encoder_en/KonaTransformer/Encode/TransformerStack/Layer_0/TransformerLayer/MultiheadAttention/split_heads/split_last_dimension/strided_slice_1/stack_1", "shape": [1], "dtype": "int32"}, {"name": "module_apply_default/Encoder_en/KonaTransformer/Encode/TransformerStack/Layer_0/TransformerLayer/MultiheadAttention/split_heads/split_last_dimension/strided_slice_1/stack_2", "shape": [1], "dtype": "int32"}, {"name": "module_apply_default/Encoder_en/KonaTransformer/Encode/TransformerStack/Layer_0/TransformerLayer/MultiheadAttention/split_heads/split_last_dimension/Reshape/shape/2", "shape": [], "dtype": "int32"}, {"name": "module_apply_default/Encoder_en/KonaTransformer/Encode/TransformerStack/Layer_0/TransformerLayer/MultiheadAttention/split_heads/split_last_dimension/Reshape/shape/3", "shape": [], "dtype": "int32"}, {"name": "module_apply_default/Encoder_en/KonaTransformer/Encode/TransformerStack/Layer_0/TransformerLayer/MultiheadAttention/split_heads/transpose/perm", "shape": [4], "dtype": "int32"}, {"name": "module_apply_default/Encoder_en/KonaTransformer/Encode/TransformerStack/Layer_0/TransformerLayer/MultiheadAttention/mul/y", "shape": [], "dtype": "float32"}, {"name": "module_apply_default/Encoder_en/KonaTransformer/Encode/TransformerStack/Layer_0/TransformerLayer/MultiheadAttention/split_heads_1/split_last_dimension/strided_slice/stack", "shape": [1], "dtype": "int32"}, {"name": "module_apply_default/Encoder_en/KonaTransformer/Encode/TransformerStack/Layer_0/TransformerLayer/MultiheadAttention/split_heads_1/split_last_dimension/strided_slice/stack_1", "shape": [1], "dtype": "int32"}, {"name": "module_apply_default/Encoder_en/KonaTransformer/Encode/TransformerStack/Layer_0/TransformerLayer/MultiheadAttention/split_heads_1/split_last_dimension/strided_slice/stack_2", "shape": [1], "dtype": "int32"}, {"name": "module_apply_default/Encoder_en/KonaTransformer/Encode/TransformerStack/Layer_0/TransformerLayer/MultiheadAttention/split_heads_1/split_last_dimension/strided_slice_1/stack", "shape": [1], "dtype": "int32"}, {"name": "module_apply_default/Encoder_en/KonaTransformer/Encode/TransformerStack/Layer_0/TransformerLayer/MultiheadAttention/split_heads_1/split_last_dimension/strided_slice_1/stack_1", "shape": [1], "dtype": "int32"}, {"name": "module_apply_default/Encoder_en/KonaTransformer/Encode/TransformerStack/Layer_0/TransformerLayer/MultiheadAttention/split_heads_1/split_last_dimension/strided_slice_1/stack_2", "shape": [1], "dtype": "int32"}, {"name": "module_apply_default/Encoder_en/KonaTransformer/Encode/TransformerStack/Layer_0/TransformerLayer/MultiheadAttention/split_heads_1/split_last_dimension/Reshape/shape/2", "shape": [], "dtype": "int32"}, {"name": "module_apply_default/Encoder_en/KonaTransformer/Encode/TransformerStack/Layer_0/TransformerLayer/MultiheadAttention/split_heads_1/split_last_dimension/Reshape/shape/3", "shape": [], "dtype": "int32"}, {"name": "module_apply_default/Encoder_en/KonaTransformer/Encode/TransformerStack/Layer_0/TransformerLayer/MultiheadAttention/split_heads_1/transpose/perm", "shape": [4], "dtype": "int32"}, {"name": "module_apply_default/Encoder_en/KonaTransformer/Encode/TransformerStack/Layer_0/TransformerLayer/MultiheadAttention/DotProductAttention/attention_bias_ignore_padding/mul/y", "shape": [], "dtype": "float32"}, {"name": "module_apply_default/Encoder_en/KonaTransformer/Encode/TransformerStack/Layer_0/TransformerLayer/MultiheadAttention/DotProductAttention/attention_bias_ignore_padding/ExpandDims/dim", "shape": [], "dtype": "int32"}, {"name": "module_apply_default/Encoder_en/KonaTransformer/Encode/TransformerStack/Layer_0/TransformerLayer/MultiheadAttention/DotProductAttention/attention_bias_ignore_padding/ExpandDims_1/dim", "shape": [], "dtype": "int32"}, {"name": "module_apply_default/Encoder_en/KonaTransformer/Encode/TransformerStack/Layer_0/TransformerLayer/MultiheadAttention/split_heads_2/split_last_dimension/strided_slice/stack", "shape": [1], "dtype": "int32"}, {"name": "module_apply_default/Encoder_en/KonaTransformer/Encode/TransformerStack/Layer_0/TransformerLayer/MultiheadAttention/split_heads_2/split_last_dimension/strided_slice/stack_1", "shape": [1], "dtype": "int32"}, {"name": "module_apply_default/Encoder_en/KonaTransformer/Encode/TransformerStack/Layer_0/TransformerLayer/MultiheadAttention/split_heads_2/split_last_dimension/strided_slice/stack_2", "shape": [1], "dtype": "int32"}, {"name": "module_apply_default/Encoder_en/KonaTransformer/Encode/Layer_0/TransformerLayer/layer_prepostprocess/layer_norm/layer_norm_scale/ConcatPartitions/concat", "shape": [256], "dtype": "float32"}, {"name": "module_apply_default/Encoder_en/KonaTransformer/Encode/TransformerStack/Layer_0/TransformerLayer/layer_prepostprocess/layer_norm/Mean/reduction_indices", "shape": [1], "dtype": "int32"}, {"name": "module_apply_default/Encoder_en/KonaTransformer/Encode/TransformerStack/Layer_0/TransformerLayer/layer_prepostprocess/layer_norm/Mean_1/reduction_indices", "shape": [1], "dtype": "int32"}, {"name": "module_apply_default/Encoder_en/KonaTransformer/Encode/TransformerStack/Layer_0/TransformerLayer/layer_prepostprocess/layer_norm/Cast/x", "shape": [], "dtype": "float32"}, {"name": "module_apply_default/Encoder_en/KonaTransformer/Encode/Layer_0/TransformerLayer/layer_prepostprocess/layer_norm/layer_norm_bias/ConcatPartitions/concat", "shape": [256], "dtype": "float32"}, {"name": "module_apply_default/Encoder_en/KonaTransformer/Encode/TransformerStack/Layer_0/TransformerLayer/MultiheadAttention/ExpandDims/dim", "shape": [], "dtype": "int32"}, {"name": "module/Encoder_en/KonaTransformer/Encode/Layer_0/TransformerLayer/MultiheadAttention/qkv_transform_single/kernel/part_0", "shape": [1, 1, 256, 768], "dtype": "float32"}, {"name": "module_apply_default/Encoder_en/KonaTransformer/Encode/Layer_0/TransformerLayer/MultiheadAttention/qkv_transform_single/bias/ConcatPartitions/concat", "shape": [768], "dtype": "float32"}, {"name": "module_apply_default/Encoder_en/KonaTransformer/Encode/TransformerStack/Layer_0/TransformerLayer/MultiheadAttention/Const", "shape": [3], "dtype": "int32"}, {"name": "module_apply_default/Encoder_en/KonaTransformer/Encode/TransformerStack/Layer_0/TransformerLayer/MultiheadAttention/split/split_dim", "shape": [], "dtype": "int32"}, {"name": "module_apply_default/Encoder_en/KonaTransformer/Encode/TransformerStack/Layer_0/TransformerLayer/MultiheadAttention/split_heads_2/split_last_dimension/strided_slice_1/stack", "shape": [1], "dtype": "int32"}, {"name": "module_apply_default/Encoder_en/KonaTransformer/Encode/TransformerStack/Layer_0/TransformerLayer/MultiheadAttention/split_heads_2/split_last_dimension/strided_slice_1/stack_1", "shape": [1], "dtype": "int32"}, {"name": "module_apply_default/Encoder_en/KonaTransformer/Encode/TransformerStack/Layer_0/TransformerLayer/MultiheadAttention/split_heads_2/split_last_dimension/strided_slice_1/stack_2", "shape": [1], "dtype": "int32"}, {"name": "module_apply_default/Encoder_en/KonaTransformer/Encode/TransformerStack/Layer_0/TransformerLayer/MultiheadAttention/split_heads_2/split_last_dimension/Reshape/shape/2", "shape": [], "dtype": "int32"}, {"name": "module_apply_default/Encoder_en/KonaTransformer/Encode/TransformerStack/Layer_0/TransformerLayer/MultiheadAttention/split_heads_2/split_last_dimension/Reshape/shape/3", "shape": [], "dtype": "int32"}, {"name": "module_apply_default/Encoder_en/KonaTransformer/Encode/TransformerStack/Layer_0/TransformerLayer/MultiheadAttention/split_heads_2/transpose/perm", "shape": [4], "dtype": "int32"}, {"name": "module_apply_default/Encoder_en/KonaTransformer/Encode/TransformerStack/Layer_0/TransformerLayer/MultiheadAttention/combine_heads/transpose/perm", "shape": [4], "dtype": "int32"}, {"name": "module_apply_default/Encoder_en/KonaTransformer/Encode/TransformerStack/Layer_0/TransformerLayer/MultiheadAttention/combine_heads/combine_last_two_dimensions/strided_slice_1/stack", "shape": [1], "dtype": "int32"}, {"name": "module_apply_default/Encoder_en/KonaTransformer/Encode/TransformerStack/Layer_0/TransformerLayer/MultiheadAttention/combine_heads/combine_last_two_dimensions/strided_slice_1/stack_1", "shape": [1], "dtype": "int32"}, {"name": "module_apply_default/Encoder_en/KonaTransformer/Encode/TransformerStack/Layer_0/TransformerLayer/MultiheadAttention/combine_heads/combine_last_two_dimensions/strided_slice_1/stack_2", "shape": [1], "dtype": "int32"}, {"name": "module_apply_default/Encoder_en/KonaTransformer/Encode/TransformerStack/Layer_0/TransformerLayer/MultiheadAttention/combine_heads/combine_last_two_dimensions/Reshape/shape/2", "shape": [], "dtype": "int32"}, {"name": "module_apply_default/Encoder_en/KonaTransformer/Encode/TransformerStack/Layer_0/TransformerLayer/MultiheadAttention/ExpandDims_1/dim", "shape": [], "dtype": "int32"}, {"name": "module/Encoder_en/KonaTransformer/Encode/Layer_0/TransformerLayer/MultiheadAttention/output_transform_single/kernel/part_0", "shape": [1, 1, 256, 512], "dtype": "float32"}, {"name": "module_apply_default/Encoder_en/KonaTransformer/Encode/Layer_0/TransformerLayer/MultiheadAttention/output_transform_single/bias/ConcatPartitions/concat", "shape": [512], "dtype": "float32"}, {"name": "module/Embeddings_en", "shape": [8002, 256], "dtype": "float32"}, {"name": "module_apply_default/Encoder_en/KonaTransformer/Encode/embedding_lookup/axis", "shape": [], "dtype": "int32"}, {"name": "module_apply_default/Encoder_en/KonaTransformer/Encode/Scatter/strided_slice/stack", "shape": [1], "dtype": "int32"}, {"name": "module_apply_default/Encoder_en/KonaTransformer/Encode/Scatter/strided_slice/stack_1", "shape": [1], "dtype": "int32"}, {"name": "module_apply_default/Encoder_en/KonaTransformer/Encode/Scatter/strided_slice/stack_2", "shape": [1], "dtype": "int32"}, {"name": "module_apply_default/Encoder_en/KonaTransformer/Encode/Scatter/concat/axis", "shape": [], "dtype": "int32"}, {"name": "module_apply_default/Encoder_en/KonaTransformer/Encode/TransformerStack/Layer_0/AddTimingSignal/strided_slice_2/stack", "shape": [2], "dtype": "int32"}, {"name": "module_apply_default/Encoder_en/KonaTransformer/Encode/TransformerStack/Layer_0/AddTimingSignal/strided_slice_2/stack_1", "shape": [2], "dtype": "int32"}, {"name": "module_apply_default/Encoder_en/KonaTransformer/Encode/TransformerStack/Layer_0/AddTimingSignal/strided_slice_2/stack_2", "shape": [2], "dtype": "int32"}, {"name": "module_apply_default/Encoder_en/KonaTransformer/Encode/TransformerStack/Layer_0/AddTimingSignal/TimingSignal/ExpandDims/dim", "shape": [], "dtype": "int32"}, {"name": "module_apply_default/Encoder_en/KonaTransformer/Encode/TransformerStack/Layer_0/AddTimingSignal/TimingSignal/ExpandDims_1", "shape": [1, 128], "dtype": "float32"}, {"name": "module_apply_default/Encoder_en/KonaTransformer/Encode/TransformerStack/Layer_0/AddTimingSignal/TimingSignal/concat/axis", "shape": [], "dtype": "int32"}, {"name": "module_apply_default/Encoder_en/KonaTransformer/Encode/TransformerStack/Layer_0/AddTimingSignal/Scatter/strided_slice/stack", "shape": [1], "dtype": "int32"}, {"name": "module_apply_default/Encoder_en/KonaTransformer/Encode/TransformerStack/Layer_0/AddTimingSignal/Scatter/strided_slice/stack_1", "shape": [1], "dtype": "int32"}, {"name": "module_apply_default/Encoder_en/KonaTransformer/Encode/TransformerStack/Layer_0/AddTimingSignal/Scatter/strided_slice/stack_2", "shape": [1], "dtype": "int32"}, {"name": "module_apply_default/Encoder_en/KonaTransformer/Encode/TransformerStack/Layer_0/AddTimingSignal/Scatter/concat/axis", "shape": [], "dtype": "int32"}, {"name": "module_apply_default/Encoder_en/KonaTransformer/Encode/Layer_0/TransformerLayer/dense/kernel/ConcatPartitions/concat", "shape": [256, 512], "dtype": "float32"}, {"name": "module_apply_default/Encoder_en/KonaTransformer/Encode/Layer_0/TransformerLayer/dense/bias/ConcatPartitions/concat", "shape": [512], "dtype": "float32"}, {"name": "module_apply_default/Encoder_en/KonaTransformer/Encode/TransformerStack/Layer_0/TransformerLayer/AdjustResidualInput/Scatter/strided_slice/stack", "shape": [1], "dtype": "int32"}, {"name": "module_apply_default/Encoder_en/KonaTransformer/Encode/TransformerStack/Layer_0/TransformerLayer/AdjustResidualInput/Scatter/strided_slice/stack_1", "shape": [1], "dtype": "int32"}, {"name": "module_apply_default/Encoder_en/KonaTransformer/Encode/TransformerStack/Layer_0/TransformerLayer/AdjustResidualInput/Scatter/strided_slice/stack_2", "shape": [1], "dtype": "int32"}, {"name": "module_apply_default/Encoder_en/KonaTransformer/Encode/TransformerStack/Layer_0/TransformerLayer/AdjustResidualInput/Scatter/concat/axis", "shape": [], "dtype": "int32"}, {"name": "module_apply_default/Encoder_en/KonaTransformer/strided_slice/stack", "shape": [1], "dtype": "int32"}, {"name": "module_apply_default/Encoder_en/KonaTransformer/strided_slice/stack_1", "shape": [1], "dtype": "int32"}, {"name": "module_apply_default/Encoder_en/KonaTransformer/strided_slice/stack_2", "shape": [1], "dtype": "int32"}, {"name": "module_apply_default/Encoder_en/KonaTransformer/SequenceMask/Const_1", "shape": [], "dtype": "int32"}, {"name": "module_apply_default/Encoder_en/KonaTransformer/SequenceMask/ExpandDims/dim", "shape": [], "dtype": "int32"}, {"name": "module_apply_default/Encoder_en/KonaTransformer/ExpandDims/dim", "shape": [], "dtype": "int32"}, {"name": "module_apply_default/Encoder_en/KonaTransformer/Sum/reduction_indices", "shape": [], "dtype": "int32"}, {"name": "module_apply_default/Encoder_en/KonaTransformer/ClipToMaxLength/Const", "shape": [], "dtype": "int32"}, {"name": "module_apply_default/Encoder_en/KonaTransformer/ClipToMaxLength/GatherV2/axis", "shape": [], "dtype": "int32"}, {"name": "module_apply_default/Encoder_en/KonaTransformer/ClipToMaxLength/Max/reduction_indices", "shape": [], "dtype": "int32"}, {"name": "module_apply_default/Encoder_en/KonaTransformer/ClipToMaxLength/ones_like", "shape": [2], "dtype": "int32"}, {"name": "module_apply_default/Encoder_en/KonaTransformer/ClipToMaxLength/strided_slice/stack", "shape": [2], "dtype": "int32"}, {"name": "module_apply_default/Encoder_en/KonaTransformer/ClipToMaxLength/strided_slice/stack_1", "shape": [2], "dtype": "int32"}, {"name": "module_apply_default/Encoder_en/KonaTransformer/ClipToMaxLength/strided_slice/stack_2", "shape": [2], "dtype": "int32"}, {"name": "module_apply_default/Encoder_en/KonaTransformer/ClipToMaxLength/Less/y", "shape": [], "dtype": "int32"}, {"name": "module_apply_default/Encoder_en/KonaTransformer/ClipToMaxLength/Reshape/shape", "shape": [1], "dtype": "int32"}, {"name": "module_apply_default/Encoder_en/KonaTransformer/ClipToMaxLength/GatherV2_1/axis", "shape": [], "dtype": "int32"}, {"name": "module_apply_default/Encoder_en/KonaTransformer/Encode/SparseToDense/default_value", "shape": [], "dtype": "int32"}, {"name": "module_apply_default/Encoder_en/KonaTransformer/Encode/Greater/y", "shape": [], "dtype": "int32"}, {"name": "module_apply_default/Encoder_en/KonaTransformer/Encode/TransformerStack/MaskLength/Sum/reduction_indices", "shape": [], "dtype": "int32"}, {"name": "module_apply_default/Encoder_en/KonaTransformer/Maximum/y", "shape": [], "dtype": "int32"}, {"name": "module_apply_default/Encoder_en/KonaTransformer/ExpandDims_1/dim", "shape": [], "dtype": "int32"}, {"name": "module/Encoder_en/hidden_layers/tanh_layer_0/weights", "shape": [512, 512], "dtype": "float32"}, {"name": "module/Encoder_en/hidden_layers/tanh_layer_0/bias", "shape": [512], "dtype": "float32"}, {"name": "module_apply_default/Encoder_en/hidden_layers/l2_normalize/Sum/reduction_indices", "shape": [], "dtype": "int32"}, {"name": "module_apply_default/Encoder_en/hidden_layers/l2_normalize/Maximum/y", "shape": [], "dtype": "float32"}]}]}